actor_target_network.model (npz, 43613 bytes, 5 tensors)

layer1/W f4 [110, 4]
0	0xbdd19ee2	-0.102353826
1	0x3e753810	0.23947167
2	0xbe84f9f0	-0.25971937
3	0xbe8e4457	-0.27786514
4	0x3f7b9eb3	0.9828903
5	0x3f325b1f	0.6967029
6	0x3d3e467c	0.046453938
7	0x3e104108	0.14087307
8	0x3ec4deaa	0.3845113
9	0x3f1f8b2c	0.62321734
10	0x3f00eb95	0.5035947
11	0xbf25ea93	-0.64811057
12	0x3e0ccbb4	0.13749582
13	0x3dea6823	0.11445644
14	0x3f2d2c61	0.6764584
15	0x3ee2ed09	0.44321468
16	0xbf801ad3	-1.0008186
17	0xbe3e6225	-0.18592127
18	0x3f55a29f	0.83451265
19	0xbe608c36	-0.21928486
20	0xbe8a2c7f	-0.26987073
21	0x3e743761	0.2384925
22	0x3fcfeeb2	1.6244719
23	0xbf02b795	-0.51061374
24	0xbe93bbfe	-0.28854364
25	0x3d7e334c	0.06206064
26	0x3e1af02a	0.15130678
27	0x3e8615ed	0.26188603
28	0x39f67cf9	0.00047013888
29	0x3f2c01f6	0.6719049
30	0xbeb6aad2	-0.356772
31	0xbed4c67a	-0.41557676
32	0xbf97b1e0	-1.1851158
33	0xbf6e2d69	-0.9303804
34	0xbedc5a99	-0.4303787
35	0x3e8f65af	0.28007266
36	0xbf220a24	-0.63296723
37	0x3d7567ec	0.05991356
38	0xbf08212d	-0.5317562
39	0x3e2a6f9a	0.16644135
40	0xbf9700b8	-1.1797094
41	0xbdcc54fd	-0.09977148
42	0xbf45601c	-0.77099776
43	0xbef88226	-0.48536795
44	0xbf274cc4	-0.6535151
45	0x3e129c6f	0.14317487
46	0x3e418722	0.18899205
47	0xbec0feb5	-0.37694326
48	0x3e299e46	0.16564283
49	0x3f2cc45a	0.6748711
50	0x3d0f1b82	0.034938343
51	0x3dfc9823	0.12333705
52	0xbbc25729	-0.0059308005
53	0x3f009dab	0.5024058
54	0x3f29e183	0.6635973
55	0xbeeb54ba	-0.4596308
56	0xbf46491f	-0.77455324
57	0x3c35bc7a	0.0110923
58	0x3ec22416	0.37918156
59	0xbea9181f	-0.33026215
60	0x3edcd20c	0.43129003
61	0xbba45cd9	-0.005015951
62	0x3cccd69c	0.025004677
63	0x3eab9340	0.3351078
64	0x3eda5beb	0.42648253
65	0xbef4b3d2	-0.47793442
66	0xbc407511	-0.011746661
67	0xbf937891	-1.1521169
68	0xbea70833	-0.32623443
69	0xbf1bf152	-0.609151
70	0xbf2a92f4	-0.6663048
71	0x3f098d3c	0.5373113
72	0x3eb94092	0.36182076
73	0x3eb0a3f6	0.34500092
74	0x3f003293	0.5007717
75	0xbe80ca56	-0.2515437
76	0xbe9f4d5d	-0.3111371
77	0xbeebd1b5	-0.4605843
78	0xbeb9e921	-0.36310676
79	0x3de43ebb	0.111447774
80	0x3cd230d5	0.02565805
81	0xbf143027	-0.57885975
82	0x3ed113b5	0.40835348
83	0x3e5e0214	0.2168048
84	0x3f015fd4	0.5053685
85	0x3f699583	0.9124376
86	0xbeff5d5b	-0.49875912
87	0x3ed9c057	0.42529556
88	0xbd86bc47	-0.0657888
89	0x3ee993f9	0.45620707
90	0x3dc0ba4d	0.09410534
91	0x3f8ad875	1.0847307
92	0xbd6b5f7b	-0.057464104
93	0x3f803c94	1.0018487
94	0x3c7290fd	0.014805076
95	0x3ecb95b6	0.39762658
96	0x3d71e387	0.059054878
97	0xbebf9fc3	-0.37426576
98	0x3e95c094	0.29248488
99	0x3d9c573f	0.07633828
100	0xbf486775	-0.7828286
101	0xbe9002a2	-0.2812701
102	0xbc85cad5	-0.01633207
103	0xbeedd35a	-0.4645031
104	0xbe7713c3	-0.24128632
105	0xbc948966	-0.018131923
106	0x3f0c35be	0.54769504
107	0x3efb1e21	0.49046424
108	0xbe96e8aa	-0.29474384
109	0x3f4a7526	0.79085004
110	0xbe875b2a	-0.2643674
111	0x3e69fc26	0.22850093
112	0x3eee126f	0.4649844
113	0xbf48dddc	-0.7846353
114	0xbf02e0da	-0.51124346
115	0xbe4e3f55	-0.20141347
116	0x3de1c74f	0.11024343
117	0xbdc60af1	-0.09670056
118	0x3eab4df6	0.33457917
119	0xbf5311ef	-0.8244924
120	0xbf902dd5	-1.1263987
121	0xbf155ac2	-0.5834161
122	0x3e350bfd	0.17680354
123	0x3eb3bd7e	0.3510551
124	0xbe0c9456	-0.1372846
125	0xbd8e7b4a	-0.06957109
126	0x3d5c7b64	0.053828612
127	0xbe9b468b	-0.30327258
128	0xbe558977	-0.2085322
129	0xbc0b5257	-0.008503518
130	0xbf1cb0cb	-0.61207265
131	0xbf6681ec	-0.90041995
132	0x3f513f09	0.8173681
133	0x3efd2fa6	0.49450415
134	0x3e6a7721	0.22897007
135	0x3e8e1e99	0.2775772
136	0x3f274298	0.6533599
137	0xbe61903d	-0.22027679
138	0xbe1a4a95	-0.15067513
139	0x3e7f6199	0.24939574
140	0xbed2f114	-0.41199553
141	0x3f29084d	0.6602829
142	0x3e8209fb	0.2539824
143	0xbea747b1	-0.32671884
144	0x3dbf778f	0.09348976
145	0xbe489036	-0.19586262
146	0xbe0b69fc	-0.13614649
147	0xbc0c6c32	-0.008570718
148	0x3eae2980	0.34016037
149	0x3ea2b0f0	0.31775618
150	0xbec1d652	-0.37858826
151	0x3eb7d479	0.3590429
152	0xbe1bc9ae	-0.15213653
153	0xbf56c1d5	-0.83889514
154	0x3e5a9dec	0.21349305
155	0xbf4828a1	-0.78186995
156	0xbe3c2753	-0.18374376
157	0x3f05e076	0.52295625
158	0x3f1c2777	0.6099772
159	0xbdfda4d6	-0.123849556
160	0xbe551c61	-0.20811607
161	0xbd6f190e	-0.058373503
162	0xbf6c2200	-0.9223938
163	0x3f8465b6	1.034354
164	0xbec6e757	-0.38848373
165	0x3f385763	0.7200834
166	0xbd626be6	-0.05527868
167	0x3f1d1b04	0.6136935
168	0x3f75dc42	0.9603921
169	0x3ebf163c	0.3732165
170	0x3f8e60d3	1.1123298
171	0xbeaded2f	-0.3397002
172	0x3eba34d7	0.3636844
173	0xbede6523	-0.43436536
174	0xbf1b5f77	-0.6069254
175	0xbe70f68a	-0.23531547
176	0xbeeb536d	-0.45962086
177	0xbed6bd59	-0.41941336
178	0x3e5eccad	0.21757765
179	0xbe8ecc4a	-0.27890235
180	0xbe9144b9	-0.28372744
181	0xbe3ecae0	-0.18632078
182	0xbeed32d5	-0.46327844
183	0x3f60a764	0.8775542
184	0x3f1adb0e	0.604905
185	0x3f22902c	0.6350124
186	0xbef970d8	-0.48718905
187	0xbea27c4e	-0.31735462
188	0xbe4a994a	-0.19785038
189	0xbe1430f1	-0.14471795
190	0xbebbfae5	-0.36714855
191	0xbeba7f48	-0.36425233
192	0x3ed6b9f7	0.41938755
193	0x3e08a63a	0.1334466
194	0x3eb8a031	0.36059716
195	0x3ee93629	0.45549133
196	0xbf02acf0	-0.5104513
197	0xbf34ead1	-0.706708
198	0x3f25f73f	0.6483039
199	0x3e012a37	0.1261376
200	0x3f10514d	0.56374055
201	0xbe918044	-0.2841817
202	0x3e1e64b8	0.15468109
203	0xbe93cf89	-0.28869274
204	0xbf1595cd	-0.584317
205	0xbed33482	-0.41250998
206	0xbfa93e01	-1.3222047
207	0xbd9ca84f	-0.0764929
208	0xbec07de5	-0.3759605
209	0xbd87cab8	-0.066304624
210	0x3f3a88cc	0.72864985
211	0x3e9c08f8	0.30475593
212	0xbe7cd0a3	-0.24688964
213	0x3f1eb7a9	0.61998993
214	0xbd8afabf	-0.06786107
215	0x3f370b9c	0.7150209
216	0xbed8cb52	-0.4234262
217	0x3e9a70b3	0.30164108
218	0x3f21bcbc	0.6317861
219	0xbe02cfa8	-0.12774527
220	0xbe643144	-0.22284418
221	0x3e6fcdc2	0.23418334
222	0xbef62bad	-0.48080197
223	0xbf69895d	-0.91225225
224	0x3ea01c0f	0.31271407
225	0x3f02ed7b	0.51143616
226	0x3f0dc017	0.5537123
227	0x3d3a3d3a	0.045468546
228	0xbe334171	-0.17505433
229	0x3ddf3020	0.10897851
230	0xbee51279	-0.44740656
231	0xbf5ee946	-0.87074697
232	0xbf06b051	-0.5261279
233	0x3f37e29a	0.7183014
234	0xbe938254	-0.2881037
235	0xbf9ae61b	-1.2101473
236	0xbf07fa6b	-0.5311648
237	0x3df311b7	0.11868613
238	0x39faf7f3	0.00047868452
239	0x3d05a376	0.03262659
240	0xbf2f0b08	-0.6837621
241	0xbc780ddf	-0.015140026
242	0x3ef0c3e8	0.47024465
243	0xbea476bc	-0.32121837
244	0x3f052498	0.5200896
245	0xbf0a9d32	-0.5414611
246	0x3e5bc1e2	0.21460679
247	0xbdf1e49e	-0.118111834
248	0x3ea44e2c	0.3209089
249	0xbe29cf6a	-0.16583028
250	0x3f3270f5	0.6970361
251	0xbf09d2ae	-0.53837097
252	0xbdc515cd	-0.09623299
253	0xbedf0627	-0.4355938
254	0x3e5779ea	0.210426
255	0xbf1b0f85	-0.60570556

layer1/b f4 [110]
0	0x00000000	0.0
1	0x00000000	0.0
2	0x00000000	0.0
3	0x00000000	0.0
4	0x00000000	0.0
5	0x00000000	0.0
6	0x00000000	0.0
7	0x00000000	0.0
8	0x00000000	0.0
9	0x00000000	0.0
10	0x00000000	0.0
11	0x00000000	0.0
12	0x00000000	0.0
13	0x00000000	0.0
14	0x00000000	0.0
15	0x00000000	0.0
16	0x00000000	0.0
17	0x00000000	0.0
18	0x00000000	0.0
19	0x00000000	0.0
20	0x00000000	0.0
21	0x00000000	0.0
22	0x00000000	0.0
23	0x00000000	0.0
24	0x00000000	0.0
25	0x00000000	0.0
26	0x00000000	0.0
27	0x00000000	0.0
28	0x00000000	0.0
29	0x00000000	0.0
30	0x00000000	0.0
31	0x00000000	0.0
32	0x00000000	0.0
33	0x00000000	0.0
34	0x00000000	0.0
35	0x00000000	0.0
36	0x00000000	0.0
37	0x00000000	0.0
38	0x00000000	0.0
39	0x00000000	0.0
40	0x00000000	0.0
41	0x00000000	0.0
42	0x00000000	0.0
43	0x00000000	0.0
44	0x00000000	0.0
45	0x00000000	0.0
46	0x00000000	0.0
47	0x00000000	0.0
48	0x00000000	0.0
49	0x00000000	0.0
50	0x00000000	0.0
51	0x00000000	0.0
52	0x00000000	0.0
53	0x00000000	0.0
54	0x00000000	0.0
55	0x00000000	0.0
56	0x00000000	0.0
57	0x00000000	0.0
58	0x00000000	0.0
59	0x00000000	0.0
60	0x00000000	0.0
61	0x00000000	0.0
62	0x00000000	0.0
63	0x00000000	0.0
64	0x00000000	0.0
65	0x00000000	0.0
66	0x00000000	0.0
67	0x00000000	0.0
68	0x00000000	0.0
69	0x00000000	0.0
70	0x00000000	0.0
71	0x00000000	0.0
72	0x00000000	0.0
73	0x00000000	0.0
74	0x00000000	0.0
75	0x00000000	0.0
76	0x00000000	0.0
77	0x00000000	0.0
78	0x00000000	0.0
79	0x00000000	0.0
80	0x00000000	0.0
81	0x00000000	0.0
82	0x00000000	0.0
83	0x00000000	0.0
84	0x00000000	0.0
85	0x00000000	0.0
86	0x00000000	0.0
87	0x00000000	0.0
88	0x00000000	0.0
89	0x00000000	0.0
90	0x00000000	0.0
91	0x00000000	0.0
92	0x00000000	0.0
93	0x00000000	0.0
94	0x00000000	0.0
95	0x00000000	0.0
96	0x00000000	0.0
97	0x00000000	0.0
98	0x00000000	0.0
99	0x00000000	0.0
100	0x00000000	0.0
101	0x00000000	0.0
102	0x00000000	0.0
103	0x00000000	0.0
104	0x00000000	0.0
105	0x00000000	0.0
106	0x00000000	0.0
107	0x00000000	0.0
108	0x00000000	0.0
109	0x00000000	0.0

layer2/W f4 [100, 110]
0	0xbcbfa9c0	-0.023396373
1	0x3d94daa5	0.07268266
2	0x3c498abc	0.012301143
3	0x3d74e5ab	0.05978934
4	0xbdcf6bf2	-0.10128011
5	0xbe126743	-0.14297204
6	0x3d54e751	0.051978413
7	0x3d1c896e	0.038217
8	0xbe3e04f5	-0.18556578
9	0x3d453bf7	0.04815289
10	0xbdb1ca5a	-0.086811736
11	0xbcab9981	-0.02094722
12	0x3d1f5c7b	0.038906556
13	0xbd6b8d27	-0.05750766
14	0xbd0d093e	-0.034432642
15	0x3d5c45ee	0.053777628
16	0xbdce5319	-0.10074443
17	0x3e07e707	0.13271724
18	0xbe2bf5eb	-0.16793029
19	0xbdb20389	-0.086920805
20	0x3d808da8	0.06277019
21	0xbe1a35e1	-0.15059616
22	0x3d32c070	0.043640554
23	0xbc8f257b	-0.017473927
24	0xbd85da96	-0.065358326
25	0x3c264313	0.010147828
26	0xbcf89116	-0.03034262
27	0x3d2961ab	0.04135291
28	0x3d5f51e6	0.054521464
29	0x3d5d7a03	0.054071438
30	0x3bfedf15	0.0077780583
31	0xbcec258d	-0.0288265
32	0xbd8df1c0	-0.06930876
33	0x3c8cdb04	0.017194279
34	0xbd4b2953	-0.049599957
35	0x3d1b785f	0.03795659
36	0xbdb30c93	-0.08742633
37	0xbc011cb7	-0.007880381
38	0xbe3d6181	-0.18494226
39	0x3e09780b	0.13424699
40	0x3e13a9c5	0.1442023
41	0x3d4d9da0	0.05019915
42	0xbcd07e50	-0.025450855
43	0x3da860a1	0.082215555
44	0x3c02e9c9	0.007990309
45	0xbe36ce15	-0.17852052
46	0xbdbc00dd	-0.09179852
47	0x3bfa273e	0.0076340726
48	0x3c491725	0.0122735845
49	0xbd3b1d66	-0.045682333
50	0xbd7a0dd6	-0.06104835
51	0x3d91aa69	0.07112581
52	0xbd7320e3	-0.059357535
53	0x3db6d413	0.08927169
54	0x3d927498	0.07151145
55	0xbbb131f3	-0.0054075657
56	0x3e60a018	0.21936071
57	0x3d5e691a	0.05429945
58	0x3e116afa	0.14200965
59	0x3df6de7b	0.120541535
60	0xbd94c367	-0.072638325
61	0xbd018254	-0.03161843
62	0xbe2afd2a	-0.16698137
63	0x3d759b73	0.0599627
64	0x3cdca7d4	0.026935495
65	0xbe02a60f	-0.12758659
66	0xbd438192	-0.04773099
67	0x3c3e0736	0.011598399
68	0x3e26ca9b	0.16288225
69	0xbdbd9b32	-0.09258117
70	0xbd71df7c	-0.059051022
71	0xbd8de757	-0.0692889
72	0x3dee8d36	0.116480276
73	0x3d44b6bf	0.048025843
74	0xbe078126	-0.1323286
75	0x3ca00130	0.019531816
76	0x3d6bc51e	0.057561032
77	0x3d551beb	0.052028578
78	0x3cb7ecf3	0.022451853
79	0x3c2eb411	0.010663048
80	0xbdf4614c	-0.119326204
81	0xbe8ffa9c	-0.28120887
82	0x3d77d954	0.060509995
83	0x3c41f3c8	0.011837907
84	0x3dfd62b8	0.12372345
85	0xbe24b3f9	-0.16084279
86	0x3dd4c0dc	0.103883475
87	0x3e49369b	0.19649737
88	0xbcbc6c5b	-0.023000887
89	0xbdb91716	-0.090376064
90	0x3d840f32	0.06448211
91	0xbd7f291c	-0.062295064
92	0xbd7ebf0c	-0.062193915
93	0x3d4e8705	0.050421733
94	0x3d0bbb62	0.03411425
95	0x3c93597f	0.017987011
96	0x3da9c531	0.082895644
97	0xbb9e4cf6	-0.004830952
98	0xbd8be247	-0.06830268
99	0xbc214e52	-0.009845333
100	0xbddecf2a	-0.10879357
101	0xbd439292	-0.047747202
102	0xbd18097e	-0.037118427
103	0xbd390e88	-0.045179874
104	0x3c48fe4c	0.01226766
105	0x3c701813	0.014654177
106	0x3d2db522	0.04240907
107	0x3c48c941	0.012255014
108	0x3cc53ec3	0.024077779
109	0xbdb7ad7e	-0.08968638
110	0x3dc3b026	0.09555082
111	0xbd4d31d5	-0.05009635
112	0xbdad4832	-0.08461036
113	0x3e32ccad	0.1746089
114	0xbdb43d38	-0.08800739
115	0x3d88cb1c	0.06679365
116	0xbdae35a8	-0.08506328
117	0x3e60a1bb	0.21936695
118	0xbd9faf30	-0.07797086
119	0x3d48a48f	0.04898506
120	0x3d7388da	0.059456684
121	0x3e1165e2	0.14199021
122	0x3e3d7532	0.18501738
123	0x3d5427a7	0.051795628
124	0x3d45afda	0.04826341
125	0x3e224523	0.15846686
126	0xbde836ed	-0.11338601
127	0x3c1236ab	0.008924167
128	0xbd52906c	-0.051407263
129	0xbe0c56ea	-0.1370503
130	0x3c92cb22	0.017919127
131	0xbd2feb72	-0.042949148
132	0xbd49dc59	-0.049282406
133	0xbc1565c6	-0.009118503
134	0x3cf726b6	0.030169826
135	0x3d6ba012	0.0575257
136	0xbe11ec7e	-0.14250371
137	0xbc2d3bc9	-0.010573336
138	0x3cbc772b	0.023006042
139	0xbd638b93	-0.05555303
140	0xbcbc53d3	-0.02298919
141	0x3cb89d9d	0.022536093
142	0x3c42d537	0.011891655
143	0x3dcc50af	0.09976327
144	0xbcd54e3f	-0.026038287
145	0xbd50df87	-0.050994422
146	0xbcef730c	-0.029229663
147	0xbc7d72a8	-0.015469231
148	0xbdd38596	-0.10328214
149	0x3d8a5436	0.06754343
150	0x3e147a23	0.14499716
151	0x3ce2c7bf	0.027683137
152	0xbd8561bc	-0.06512782
153	0xbdb99118	-0.090608776
154	0x3d1c7e19	0.038206194
155	0xbc44f17a	-0.012020463
156	0x3d1b83a6	0.037967347
157	0x3c5d42d0	0.013504699
158	0xbcce508e	-0.025184896
159	0xbd309b2b	-0.04311673
160	0x3d940daf	0.072291724
161	0xbd495ae7	-0.049158957
162	0xbd66e31b	-0.05636893
163	0x3daf1b56	0.08550136
164	0xbdbdb118	-0.092622936
165	0x3e33ba08	0.17551434
166	0x3c7062d4	0.014672
167	0xbcd6149e	-0.026132878
168	0xbe2e453c	-0.17018598
169	0x3dbf8f72	0.09353532
170	0xbdaa9c29	-0.083305664
171	0xbdc65272	-0.09683694
172	0xbd209b39	-0.03921053
173	0x3e0f1865	0.1397415
174	0xbdc47bc9	-0.09593923
175	0xbdb02960	-0.08601642
176	0x3d92fe1a	0.07177372
177	0xbd3f8ff6	-0.04676815
178	0xbd4ce793	-0.050025534
179	0xbd888808	-0.06666571
180	0x3d099c45	0.033596296
181	0x3bd4c5fc	0.006493328
182	0xbdb5aac2	-0.0887046
183	0x3da51498	0.080605686
184	0x3acddbeb	0.00157058
185	0x3da4fec5	0.08056406
186	0x3e34b493	0.17647009
187	0x3b09eef2	0.0021046964
188	0xbe05ade0	-0.1305461
189	0x3dad3e54	0.08459154
190	0x3ab3199a	0.0013664246
191	0xbbe7ae98	-0.0070703737
192	0xbb97bb34	-0.0046304706
193	0x3df1295d	0.117754675
194	0xbd2937df	-0.04131305
195	0x3e07d02a	0.13263002
196	0x3da0296f	0.07820403
197	0xbcc141b5	-0.023590902
198	0x3cec18ba	0.028820384
199	0x3d5471f6	0.051866494
200	0xbdb803f7	-0.08985131
201	0xbdf74915	-0.12074486
202	0x3db70413	0.08936324
203	0xbd8c9d1e	-0.06865905
204	0xbe1b9ff1	-0.15197732
205	0xbd12a572	-0.035802312
206	0xbdbb348d	-0.09140883
207	0x3d9b1c01	0.07573701
208	0xbe1cb6c9	-0.15304102
209	0x3d5456f4	0.051840737
210	0x3db4a80c	0.08821115
211	0xbe0f7c8f	-0.14012359
212	0xbd1c0e5d	-0.038099635
213	0x3e0a61b3	0.13513832
214	0xbdaf4678	-0.08558363
215	0x3e341de3	0.17589526
216	0x3df4b480	0.1194849
217	0xbe119109	-0.14215483
218	0xbb2d4c6d	-0.0026443258
219	0x3e064544	0.1311236
220	0xbb1d841e	-0.0024035047
221	0xbd826a98	-0.063679874
222	0xbe8c0243	-0.27345476
223	0x3ca4905b	0.020088365
224	0x3dfb577a	0.12272544
225	0xbd6049d9	-0.054757927
226	0x3d4171ab	0.047227543
227	0x3d1aac2b	0.03776185
228	0x3d65f2bf	0.056139704
229	0xbdfa49a1	-0.12221075
230	0x3e4630cc	0.19354552
231	0xbd44074f	-0.047858533
232	0xbc78d3ae	-0.015187187
233	0xbe12151a	-0.14265862
234	0x3a8f108d	0.0010914967
235	0x3d23cf49	0.039992604
236	0x3e4844f6	0.19557557
237	0xbd100459	-0.035160396
238	0xbe24edfe	-0.16106412
239	0x3c66b35a	0.014080847
240	0xbc8d5fa4	-0.017257519
241	0x3c76e996	0.01507034
242	0xbd1ae4bd	-0.037815798
243	0xbd1c4ec7	-0.038161065
244	0xbda113a0	-0.07865071
245	0xbcbeed3c	-0.023306482
246	0x3dee1f56	0.116270706
247	0xbd29596c	-0.041345045
248	0x3da829a2	0.08211066
249	0xbd02a2f1	-0.031893674
250	0x3c7941d0	0.015213445
251	0xbdc02d4d	-0.093836404
252	0x3d933fe1	0.07189918
253	0xbcde21b4	-0.02711568
254	0x3cfdb116	0.03096823
255	0xbdace567	-0.084421925

layer2/b f4 [100]
0	0x00000000	0.0
1	0x00000000	0.0
2	0x00000000	0.0
3	0x00000000	0.0
4	0x00000000	0.0
5	0x00000000	0.0
6	0x00000000	0.0
7	0x00000000	0.0
8	0x00000000	0.0
9	0x00000000	0.0
10	0x00000000	0.0
11	0x00000000	0.0
12	0x00000000	0.0
13	0x00000000	0.0
14	0x00000000	0.0
15	0x00000000	0.0
16	0x00000000	0.0
17	0x00000000	0.0
18	0x00000000	0.0
19	0x00000000	0.0
20	0x00000000	0.0
21	0x00000000	0.0
22	0x00000000	0.0
23	0x00000000	0.0
24	0x00000000	0.0
25	0x00000000	0.0
26	0x00000000	0.0
27	0x00000000	0.0
28	0x00000000	0.0
29	0x00000000	0.0
30	0x00000000	0.0
31	0x00000000	0.0
32	0x00000000	0.0
33	0x00000000	0.0
34	0x00000000	0.0
35	0x00000000	0.0
36	0x00000000	0.0
37	0x00000000	0.0
38	0x00000000	0.0
39	0x00000000	0.0
40	0x00000000	0.0
41	0x00000000	0.0
42	0x00000000	0.0
43	0x00000000	0.0
44	0x00000000	0.0
45	0x00000000	0.0
46	0x00000000	0.0
47	0x00000000	0.0
48	0x00000000	0.0
49	0x00000000	0.0
50	0x00000000	0.0
51	0x00000000	0.0
52	0x00000000	0.0
53	0x00000000	0.0
54	0x00000000	0.0
55	0x00000000	0.0
56	0x00000000	0.0
57	0x00000000	0.0
58	0x00000000	0.0
59	0x00000000	0.0
60	0x00000000	0.0
61	0x00000000	0.0
62	0x00000000	0.0
63	0x00000000	0.0
64	0x00000000	0.0
65	0x00000000	0.0
66	0x00000000	0.0
67	0x00000000	0.0
68	0x00000000	0.0
69	0x00000000	0.0
70	0x00000000	0.0
71	0x00000000	0.0
72	0x00000000	0.0
73	0x00000000	0.0
74	0x00000000	0.0
75	0x00000000	0.0
76	0x00000000	0.0
77	0x00000000	0.0
78	0x00000000	0.0
79	0x00000000	0.0
80	0x00000000	0.0
81	0x00000000	0.0
82	0x00000000	0.0
83	0x00000000	0.0
84	0x00000000	0.0
85	0x00000000	0.0
86	0x00000000	0.0
87	0x00000000	0.0
88	0x00000000	0.0
89	0x00000000	0.0
90	0x00000000	0.0
91	0x00000000	0.0
92	0x00000000	0.0
93	0x00000000	0.0
94	0x00000000	0.0
95	0x00000000	0.0
96	0x00000000	0.0
97	0x00000000	0.0
98	0x00000000	0.0
99	0x00000000	0.0

layer3/W f4 [1, 100]
0	0x00000000	0.0
1	0x00000000	0.0
2	0x00000000	0.0
3	0x00000000	0.0
4	0x00000000	0.0
5	0x00000000	0.0
6	0x00000000	0.0
7	0x00000000	0.0
8	0x00000000	0.0
9	0x00000000	0.0
10	0x00000000	0.0
11	0x00000000	0.0
12	0x00000000	0.0
13	0x00000000	0.0
14	0x00000000	0.0
15	0x00000000	0.0
16	0x00000000	0.0
17	0x00000000	0.0
18	0x00000000	0.0
19	0x00000000	0.0
20	0x00000000	0.0
21	0x00000000	0.0
22	0x00000000	0.0
23	0x00000000	0.0
24	0x00000000	0.0
25	0x00000000	0.0
26	0x00000000	0.0
27	0x00000000	0.0
28	0x00000000	0.0
29	0x00000000	0.0
30	0x00000000	0.0
31	0x00000000	0.0
32	0x00000000	0.0
33	0x00000000	0.0
34	0x00000000	0.0
35	0x00000000	0.0
36	0x00000000	0.0
37	0x00000000	0.0
38	0x00000000	0.0
39	0x00000000	0.0
40	0x00000000	0.0
41	0x00000000	0.0
42	0x00000000	0.0
43	0x00000000	0.0
44	0x00000000	0.0
45	0x00000000	0.0
46	0x00000000	0.0
47	0x00000000	0.0
48	0x00000000	0.0
49	0x00000000	0.0
50	0x00000000	0.0
51	0x00000000	0.0
52	0x00000000	0.0
53	0x00000000	0.0
54	0x00000000	0.0
55	0x00000000	0.0
56	0x00000000	0.0
57	0x00000000	0.0
58	0x00000000	0.0
59	0x00000000	0.0
60	0x00000000	0.0
61	0x00000000	0.0
62	0x00000000	0.0
63	0x00000000	0.0
64	0x00000000	0.0
65	0x00000000	0.0
66	0x00000000	0.0
67	0x00000000	0.0
68	0x00000000	0.0
69	0x00000000	0.0
70	0x00000000	0.0
71	0x00000000	0.0
72	0x00000000	0.0
73	0x00000000	0.0
74	0x00000000	0.0
75	0x00000000	0.0
76	0x00000000	0.0
77	0x00000000	0.0
78	0x00000000	0.0
79	0x00000000	0.0
80	0x00000000	0.0
81	0x00000000	0.0
82	0x00000000	0.0
83	0x00000000	0.0
84	0x00000000	0.0
85	0x00000000	0.0
86	0x00000000	0.0
87	0x00000000	0.0
88	0x00000000	0.0
89	0x00000000	0.0
90	0x00000000	0.0
91	0x00000000	0.0
92	0x00000000	0.0
93	0x00000000	0.0
94	0x00000000	0.0
95	0x00000000	0.0
96	0x00000000	0.0
97	0x00000000	0.0
98	0x00000000	0.0
99	0x00000000	0.0
