actor_network.model (npz, 44207 bytes, 5 tensors)

layer1/W f4 [110, 4]
000000 34 f4 c9 3c 01 02 e7 3e ab 69 bf be 4d f2 23 bf
       0.024652578 0.45118716 -0.37385306 -0.64041597
000010 67 8d 87 3f 0e 76 4e 3f cd 2d e7 bd 6c 7d 32 be
       1.0590028 0.8064889 -0.11288033 -0.17430657
000020 05 12 a3 3e da 46 32 3f 8b 20 9f 3e f8 00 83 bf
       0.31849685 0.6963936 0.31079516 -1.0234671
000030 ef 71 22 3d 72 2d 97 bd 1f 7e 4f 3f 07 75 49 3f
       0.039659437 -0.07381715 0.8105182 0.78694195
000040 9e e5 90 bf 5e 0e b6 be c8 58 7c 3f 39 56 fc 3d
       -1.1320074 -0.35557836 0.9857297 0.12321133
000050 e5 ae 45 be 3c 3a b5 3e 25 93 b8 3f 01 76 67 bf
       -0.19304998 0.35395992 1.4419905 -0.90414435
000060 e5 76 d6 be 44 d3 22 be 2c fc 85 3e c0 3f 22 3f
       -0.41887584 -0.15900904 0.26168954 0.63378525
000070 d6 03 a3 3c ba 27 47 3f 59 5d 07 bf 92 48 4a bf
       0.01989929 0.7779499 -0.5287681 -0.79016984
000080 de bd 9e bf 76 1b 90 bf 01 d2 97 be 72 9d 2d 3f
       -1.2401693 -1.125838 -0.29652408 0.6781837
000090 87 e5 2f bf e0 67 e1 bd 1b dc c4 be b8 49 0a 3f
       -0.68709606 -0.11006141 -0.38449177 0.54018736
0000a0 2e 76 81 bf 34 a7 3b 3e 82 fb 3f bf 5d b4 33 bf
       -1.011419 0.18325502 -0.74993145 -0.7019709
0000b0 10 70 d7 be 02 00 d7 3e 58 ae 28 3e a7 5a 39 bf
       -0.42077684 0.41992193 0.16472757 -0.7240395
0000c0 a7 8f 5c 3e 69 19 4b 3f fe 5a c2 bd 38 9d 51 be
       0.21539174 0.7933565 -0.09490012 -0.2047013
0000d0 35 94 f3 bc 0a c6 0f 3f 3c ba ea 3e 4f ba 57 bf
       -0.029733757 0.5616156 0.4584521 -0.8426866
0000e0 47 4a 0b bf a5 32 87 3e 69 08 9a 3e 84 85 27 bf
       -0.54410213 0.26405826 0.3008454 -0.65438104
0000f0 ad 9d c9 3e 35 aa 51 be 54 56 13 3e f4 e2 32 3f
       0.3937811 -0.20475085 0.143884 0.69877553
000100 1e 68 09 3f 80 8a 4c be 95 d7 da 3d cb 3b ab bf
       0.53674495 -0.19974709 0.1068565 -1.3377622
000110 b2 a4 cd be 92 60 42 bf d8 55 e3 be 27 62 6e 3f
       -0.40164715 -0.75928605 -0.4440143 0.9311852
000120 d4 ac a7 3e 49 76 ea 3e 19 2d a3 3e 5c d1 1d bf
       0.32749045 0.4579337 0.31870344 -0.6164758
000130 a0 00 d3 be dc 3a 28 bf e7 f2 68 be 34 54 f3 3e
       -0.41211414 -0.6571481 -0.2274891 0.4752518
000140 b3 5e de bc 7e b2 35 bf 5f 68 1f 3f 55 53 1d 3f
       -0.027144765 -0.7097548 0.6226863 0.6145528
000150 d1 f5 18 3f 01 8c 86 3f 82 d0 1c bf 0e 59 02 3e
       0.59750086 1.0511476 -0.6125566 0.12729284
000160 97 73 2a be 2d 72 79 3e 4b 5c 5c 3e 96 8b b7 3f
       -0.16645657 0.24359961 0.21519582 1.4339473
000170 da a3 45 3c ac 4c 8c 3f 0c 95 17 be be 5d d2 3d
       0.012062991 1.0960898 -0.1480295 0.10271786
000180 74 3c 25 3a b4 5c 01 bf 96 01 01 3f 32 f2 ed 3e
       0.00063032587 -0.5053208 0.50393045 0.46473843
000190 cb 86 18 bf 39 ac 87 bc c3 4f 46 bd 98 86 3a bf
       -0.5958068 -0.016561614 -0.04841591 -0.72861624
0001a0 fe 4c d9 be 39 2e 8f be e2 72 21 3f 3d ed 50 3f
       -0.42441553 -0.27964953 0.6306592 0.81611997
0001b0 c8 b1 63 be 3e 48 67 3f 8c 31 ef be f9 a9 de bd
       -0.22235787 0.9034461 -0.4671749 -0.108722635
0001c0 be 91 bf 3e 0b 51 80 bf 95 77 05 bf 04 e1 15 3e
       0.3741588 -1.0024732 -0.5213559 0.14636618
0001d0 a3 5e 9e 3e 0c 42 6d 3e ff 24 df 3e cb c0 89 bf
       0.30931577 0.23169726 0.43582913 -1.0761961
0001e0 75 16 96 bf 1c 21 3e bf a7 f0 b6 3e cb 27 34 3f
       -1.1725603 -0.7426927 0.35730478 0.7037322
0001f0 bf d5 31 3d c0 cd 64 3e 2c ea 23 3d 81 5d 25 bf
       0.043416735 0.22344112 0.040018246 -0.645958
000200 09 6c 27 bd 47 7f 8a 3e ea 0e f6 be fe c8 8c bf
       -0.040874515 0.2705023 -0.48058254 -1.0998838
000210 99 bc 65 3f 65 a5 23 3f 1f 2d 7b 3e ec ba 93 3d
       0.897409 0.6392425 0.24528931 0.07213387
000220 9c 67 21 3f 86 95 a7 be 20 5f 44 3d ce 9e 2d 3f
       0.6304872 -0.32731265 0.04794228 0.6782044
000230 c1 7a a8 be 71 50 3e 3f 6b 79 59 3d 63 56 33 bf
       -0.32906154 0.74341494 0.05309431 -0.7005369
000240 ab 64 11 bc 39 b7 b2 be 4c 02 27 3d ad b3 ae 3e
       -0.008874099 -0.34905413 0.040773675 0.34121457
000250 51 ff 81 3e 74 b6 af 3d 7e 6b 80 be f6 3e 3d 3f
       0.25390103 0.08579722 -0.2508201 0.73924196
000260 4e 31 c6 3c cf 4c 13 bf c6 47 5c 3e 0e c1 83 bf
       0.024193432 -0.57539076 0.21511754 -1.0293291
000270 d4 8b 0c be 5e fd 19 3f 11 b0 d4 3e 4d d3 fb be
       -0.13725215 0.6015223 0.41540578 -0.49184647
000280 ab a9 a8 be ce 23 8b be 34 bf 4c bf da 28 b1 3f
       -0.32941946 -0.27175754 -0.7997925 1.3840592
000290 39 f4 f3 be e9 85 0a 3f 2a 21 ab 3d ae 48 70 3f
       -0.47647265 0.5411058 0.08355935 0.938609
0002a0 d6 80 88 3f 8f c7 fe 3e fb ff 6e 3f 30 90 2f bf
       1.0664318 0.49761626 0.93359345 -0.6857939
0002b0 b9 4f e6 3e ea c3 14 be ca 48 07 bf 74 09 10 bf
       0.449827 -0.1452786 -0.5284544 -0.56264424
0002c0 41 fb 10 bf 0e 99 25 bf 64 ea 90 3e a6 83 59 bd
       -0.56633383 -0.6468667 0.28303826 -0.053104065
0002d0 61 3f ca be 0c c3 c8 be 82 e7 a9 be 7b 04 9e 3f
       -0.3950148 -0.3921131 -0.3318444 1.2345117
0002e0 16 e9 28 3f c3 2f 3f 3f 76 3b 1a bf 63 3c 2e bf
       0.6598066 0.74682254 -0.6024698 -0.6806089
0002f0 5c 14 e3 bc 37 20 e0 3d 86 e7 c1 be 9c 31 20 bf
       -0.027719669 0.109436445 -0.3787195 -0.625757
000300 7b 25 9c 3e b6 87 a7 bd 67 71 f8 3e 03 4f 4d 3f
       0.30497345 -0.08180182 0.4852402 0.8019869
000310 8e 62 10 bf 57 05 5c bf 5c 9a 5a 3f ae 5f 06 3f
       -0.5640038 -0.8594565 0.85391784 0.52489746
000320 68 56 29 3f 75 cd 19 bd 9c 70 e6 3d 3c 7d 14 bf
       0.6614747 -0.037549455 0.11251947 -0.5800359
000330 58 c9 29 bf 80 06 22 bf cd a2 a4 bf f2 de 38 3e
       -0.6632285 -0.6329117 -1.2862183 0.18053797
000340 3d f4 f9 be 35 0a 98 be 81 d5 4b 3f fc 08 2c 3f
       -0.48819152 -0.29695287 0.79622656 0.6720121
000350 ac 64 a9 be ef 56 fa 3e 2a 1d da 3d f5 7f 88 3f
       -0.3308462 0.4889445 0.10650094 1.0664049
000360 d1 08 aa be 7a d0 dd 3e b6 60 ea 3e 85 d5 00 bf
       -0.3320985 0.43323117 0.4577691 -0.50325805
000370 e0 d4 09 be 6a 18 e7 3e 97 71 c9 be aa 9d 90 bf
       -0.13460112 0.45135814 -0.39344475 -1.1298115
000380 af 0e bb 3e 02 36 27 3f 6c 98 d0 3e 56 de 8e be
       0.3653464 0.65316784 0.4074129 -0.27904004
000390 1f c1 35 bc e2 b9 c2 3e f0 ca af be 99 20 8e bf
       -0.011093407 0.38032442 -0.34334517 -1.1103698
0003a0 04 98 92 be 44 c6 82 3f e6 1c 67 be d0 b5 b6 bf
       -0.28631604 1.0216756 -0.22569618 -1.4274235
0003b0 eb 3a b4 be a8 8a a1 3e c4 b3 de bd 22 3e 8e be
       -0.352012 0.315511 -0.10874131 -0.2778178
0003c0 23 00 e8 be 80 9e 87 3e 85 80 cf 3e 40 35 2c bf
       -0.45312604 0.26488113 0.4052774 -0.67268753
0003d0 59 c0 e0 3e cd ae 2c bf 0a 42 dd 3e 63 2a 8e 3e
       0.4389675 -0.67454225 0.43214446 0.27766714
0003e0 58 c7 d2 3e 5b 84 af 3d 24 04 28 3f 07 80 5e bf
       0.41167712 0.08570167 0.6563132 -0.86914104
0003f0 4a 34 8c 3d 14 12 3e be 84 d1 59 3e 49 45 65 bf
       0.06845911 -0.18561584 0.2127133 -0.89558846

layer1/b f4 [110]
000000 04 1f 99 3d 03 17 88 3d 04 f9 25 3e c8 f3 e6 3d
       0.07476619 0.06645014 0.16208273 0.11276966
000010 0c 65 26 3e b1 ac fd 3d 51 78 4e 3d 63 a0 02 3e
       0.16249484 0.12386454 0.05040771 0.12756495
000020 5f 2f 5a 3d 3c 5e e7 3d 4c 78 1e 3e 29 8b 95 3d
       0.053267833 0.11297271 0.15475577 0.07301933
000030 b0 84 e6 3d ca 0a 15 3e 03 80 b5 3d 7f ba a8 3d
       0.11255777 0.14554897 0.08862307 0.08238696
000040 ee 08 63 3e 1c 66 fd 3d 67 36 e5 3d 6b 1d 4d 3d
       0.22171375 0.123729914 0.11192017 0.050076883
000050 1c 38 d9 3d 65 74 13 3e df 97 17 3e 73 8e 13 3e
       0.10606405 0.1439987 0.14804028 0.14409809
000060 9d 05 8b 3d 78 5b 00 3e ef ca ba 3d 09 4b ad bd
       0.0678818 0.12534893 0.09120738 -0.084615774
000070 7c a2 86 3d 4a 5f 1e 3e 15 9d d8 3d 12 a4 9a 3d
       0.0657396 0.15466037 0.10576836 0.07550825
000080 55 b8 59 3e 19 a5 fa 3d e2 11 b5 3d f7 a0 04 3e
       0.21261723 0.12238521 0.088413015 0.12952028
000090 ca 11 04 3e 71 c5 b9 3d 21 24 1a 3e 29 02 0b 3e
       0.12897411 0.09070862 0.15052845 0.13575043
0000a0 33 57 b4 3d 1f 31 1a 3e 7a 18 e6 3d 89 e4 22 3e
       0.088056944 0.150578 0.11235137 0.15907492
0000b0 81 8c f6 3d 4d 0e 99 3d 93 75 c2 3d dd f6 01 3e
       0.12038518 0.07473431 0.09495082 0.12691827
0000c0 dc e1 00 3e 1c 28 bb 3d a6 1d 05 3e d4 df 1f 3e
       0.12586159 0.0913851 0.12999591 0.15612727
0000d0 33 1a 60 3d c7 f2 39 3d ef e0 c7 3d 6b 2a 37 3e
       0.054712486 0.045397546 0.097596996 0.17887275
0000e0 8f 91 ec 3d 20 a1 3c 3e fd db 46 3e 40 98 c8 3d
       0.115512006 0.1842084 0.19419856 0.097946644
0000f0 fd eb 92 3d 61 dc 14 3e e8 8b dc 3d 27 b8 01 3e
       0.071739174 0.14537193 0.107688725 0.12667905
000100 f5 9d b1 3d 62 06 db 3d 7f 4b e7 3d 26 a4 73 3d
       0.08672706 0.10694577 0.112936966 0.059482716
000110 a5 d1 a0 3d 74 78 16 3e c0 77 d6 3d 41 6a 25 3e
       0.078524865 0.14694387 0.10472059 0.16153814
000120 7d a7 b4 3d 9a ae 43 3d f1 1e 16 3e db 1f 68 3e
       0.08821008 0.047773935 0.1466024 0.22668402
000130 58 b5 33 3e fa 38 80 3d c1 f0 b9 3d 56 fb b2 3d
       0.17549646 0.062608674 0.09079123 0.08739345
000140 82 86 d6 3d f0 09 ce 3d d7 3c 07 3e 43 c5 34 3e
       0.10474874 0.10060489 0.13206802 0.17653374
000150 d3 1b 92 3d 7e b4 ce 3d 04 1a 10 3e e6 51 05 3e
       0.07134213 0.1009302 0.14072424 0.13019523
000160 e7 38 b8 3d bc f3 c8 3d b6 b2 c9 3d 36 06 08 3e
       0.08995228 0.09812114 0.098485395 0.1328362
000170 f5 57 52 3e 52 5a 82 3d 72 20 b0 3d 41 85 0a 3e
       0.20541365 0.063648835 0.085999385 0.13527395
000180 89 36 e1 3d 6a 23 f2 3d 6b c2 a7 3d f2 66 c5 3d
       0.1099673 0.11823161 0.08191379 0.09638776
000190 72 52 df 3d 73 31 f2 3d 46 d3 bf 3d 05 d3 0d 3e
       0.10904397 0.11825838 0.09366469 0.13850029
0001a0 e1 26 0c 3e 35 cb b8 3d 17 5d 34 3e 02 ea 1d 3e
       0.13686706 0.09023134 0.17613636 0.15421298
0001b0 13 73 46 3e 17 a2 b7 3d
       0.19379835 0.08966463

layer2/W f4 [100, 110]
000000 9d 35 88 3e 0d 78 2c 3e fc 8e 58 3e f7 95 01 be
       0.26603404 0.1684267 0.21148294 -0.12654863
000010 ad 6b 1c bd 6b c3 02 3d 2a 81 7c be c6 e9 83 3e
       -0.038188625 0.031924646 -0.24658647 0.25764292
000020 64 58 c0 be 16 65 92 bd e3 4d 06 3d 31 a5 77 3e
       -0.37567437 -0.07148187 0.032789122 0.2418411
000030 fc c7 21 3e cc af 03 3e e4 10 1b 3e 77 4a 52 be
       0.15798944 0.1286003 0.15143162 -0.20536219
000040 96 97 84 3d 66 49 09 be 78 c7 db bb 7f 25 81 be
       0.06474225 -0.13406906 -0.006707128 -0.2522392
000050 a4 6e 4c be 02 28 8b bd f7 c0 3d be 3f 93 6f 3d
       -0.19964081 -0.0679474 -0.18530641 0.058490034
000060 9d fa b4 be 34 fb 14 3e 8e 19 95 be 31 87 03 3e
       -0.35347453 0.14548951 -0.2912106 0.1284454
000070 84 10 04 be 8b 8c 97 3e 03 1b 62 be a7 8a 92 3e
       -0.12896925 0.29599413 -0.22080617 0.28621408
000080 e0 4f d3 3d 39 06 b6 3d 0b 3e a8 be 38 f3 53 3e
       0.10317969 0.08887906 -0.32859835 0.2069825
000090 d8 e6 0d be ed 26 74 be 97 09 41 bd 5d 86 89 3e
       -0.13857591 -0.23842974 -0.047128286 0.26860324
0000a0 64 b4 68 be dc 85 da bc 12 31 dd 3d ca 89 8b 3e
       -0.22725064 -0.026675157 0.10800375 0.27253562
0000b0 65 d7 95 3d d5 67 0d bf 65 aa fa 3d a1 16 2d 3e
       0.07316474 -0.5523656 0.122395314 0.16903163
0000c0 f2 71 33 be 08 06 8e be fa 48 25 3e 7f 03 e7 3d
       -0.17523935 -0.27738976 0.1614112 0.11279964
0000d0 82 ab b5 be e2 92 c9 bd 19 e8 6b 3e c8 cf 37 3e
       -0.35482413 -0.09842469 0.23037757 0.17950356
0000e0 16 d5 a8 3e 43 9e 81 3e ea f0 d2 3e 18 10 8b 3e
       0.32975072 0.25316057 0.41199428 0.27160716
0000f0 3c 41 18 3e c6 1b f7 bd 9e 83 d0 3d 87 39 71 3e
       0.14868635 -0.12065844 0.10181354 0.23557101
000100 8a a0 92 be 13 c3 c6 be 07 2d 82 be 1e 79 81 3e
       -0.28638107 -0.38820705 -0.25424978 0.25287718
000110 1a 1b 98 3e 7b 8a 23 bd 96 e4 18 3e ca ec ae be
       0.29708177 -0.039926987 0.14930949 -0.3416503
000120 0c 39 d7 3a 3e 0b 87 3e ff 83 7a bd c9 1c ce bc
       0.00164202 0.26375765 -0.061161038 -0.02516021
000130 c0 c4 ac 3e e3 f3 8c be 97 f4 7f 3e e9 53 8c be
       0.33743858 -0.2752982 0.24995647 -0.27407768
000140 b5 a0 13 ba 87 ab 6b bc 16 93 63 3e 49 a9 23 3e
       -0.0005631552 -0.014384157 0.22224078 0.15982546
000150 2e 21 75 be fa d8 05 bf c8 c8 84 3e 0c 70 ac 3e
       -0.23938438 -0.52284205 0.25934434 0.33679235
000160 34 29 25 be f3 04 d9 be ef 80 c4 3e 12 97 5b 3e
       -0.16128999 -0.42386588 0.3837962 0.21444348
000170 e3 ba df 3d 06 f6 9d 3e cb 07 a2 be 0b 54 6d 3e
       0.10924318 0.30851763 -0.3164657 0.23176591
000180 21 9c b1 3e 1f 87 9e be c1 ad dd 3d 61 35 c1 3d
       0.3468943 -0.30962464 0.108241566 0.09434009
000190 1d 83 98 3c 3f 5e 69 3d 65 0b 95 be 95 5e 9c 3d
       0.018617207 0.056974646 -0.29110256 0.076352276
0001a0 b3 b5 46 3e 2b ac 4c be 86 c9 c5 3d 63 83 30 be
       0.1940525 -0.19987552 0.09657578 -0.1723762
0001b0 3c 06 83 3e d1 99 a6 be 91 15 c5 3e bc 39 40 3d
       0.25590694 -0.32539228 0.38493016 0.04693006
0001c0 7a 0f ed 3d 1b 26 33 bd a7 7a 04 bd 1a 34 7a 3e
       0.115752175 -0.043737512 -0.032343533 0.24433938
0001d0 ab 47 c8 be ab ff e0 3e 54 21 8a be a1 e3 c7 bd
       -0.39117178 0.4394506 -0.26978552 -0.09760214
0001e0 ad 2e 35 3e 20 95 cd 3e e5 ea 9b 3e e8 e3 75 3e
       0.17693587 0.40152836 0.30452648 0.2401272
0001f0 3e 7b 6e 3e 15 6c 02 be 96 3e 4c 3d a8 ae 89 be
       0.232892 -0.12736543 0.049864374 -0.26891065
000200 37 16 e9 3d 76 dd a3 be 4a 8e 83 be a7 9b 13 3d
       0.1138119 -0.320049 -0.25694495 0.036037114
000210 25 14 94 be 34 a3 83 3d be 51 8b be 35 35 42 3e
       -0.2892162 0.06427613 -0.27210802 0.1896561
000220 fa 61 d0 be ec d1 a3 3d 53 4e 0c be f3 02 3c 3e
       -0.4069975 0.07999024 -0.13701753 0.183605
000230 36 2f 85 be a5 65 a9 3e af d6 3a 3e 5f d0 0f 3e
       -0.26012582 0.3308536 0.18245958 0.14044331
000240 82 b2 ab be f6 e6 f5 3d 5e 1d ec bd a0 f7 8c be
       -0.33534628 0.12006943 -0.11529039 -0.27532673
000250 eb 29 f0 3c b6 1b 52 3e 3f 13 58 be 5a 3b 05 be
       0.029316863 0.20518383 -0.21101092 -0.13010922
000260 fd 17 93 3d cc 76 ae 3d 2d ce c6 3d 8b 53 bd be
       0.0718231 0.085187525 0.09707294 -0.369778
000270 e2 2f 81 3e 8c 37 30 3e 93 fc 7d be 43 8d 91 be
       0.25231844 0.1720869 -0.2480338 -0.28428087
000280 2c 98 96 3e 8a d7 90 bc 3b 40 b2 be e5 4d 13 be
       0.29412973 -0.017680902 -0.3481463 -0.14385183
000290 07 c4 8d 3d 89 1c b8 3e 17 ed 01 3e 0e b9 2e 3e
       0.06922155 0.3595927 0.12688099 0.1706278
0002a0 8a a3 c7 3d 19 a3 7a 3e 59 88 0a 3e ac e4 63 be
       0.097479895 0.2447628 0.13528575 -0.222552
0002b0 a8 99 6a 3e 62 15 9f 3e 72 3a d2 be 0f a1 b2 be
       0.22910178 0.31071 -0.41060215 -0.34888503
0002c0 f0 29 1d be 5a 3f 47 3e 95 53 a9 3d 2a 14 b3 bc
       -0.15348029 0.1945776 0.08267895 -0.0218602
0002d0 b5 e3 74 3e 86 b2 91 be 59 94 8b be 88 32 98 3e
       0.23914988 -0.28456515 -0.27261618 0.29726052
0002e0 2c 00 47 3d 8a c5 4d 3c 15 52 e8 3e db f5 a1 be
       0.04858415 0.012559304 0.45375124 -0.31632885
0002f0 ff 51 c9 3d 01 d8 47 be 8b 26 fa 3d 4b 5b 84 3e
       0.09830093 -0.19515993 0.12214383 0.258509
000300 4c 40 1e 3e 05 34 89 3e 22 41 c9 be 6b dd 5f be
       0.15454215 0.267975 -0.39307505 -0.21861808
000310 10 71 72 3e fe 9e e5 3d 5a eb 26 be f3 39 8f be
       0.23675942 0.11211966 -0.16300717 -0.279739
000320 b0 16 68 3e 2e 69 1e 3e 54 ff 83 3e c8 fa 43 3e
       0.22664905 0.1546981 0.25780737 0.19138634
000330 b9 47 f9 be 00 12 33 3e 86 51 31 3e a8 2e 5e be
       -0.48687533 0.17487335 0.17316255 -0.21697485
000340 61 5e d7 3c fa 9b 1e 3e 81 3d 5f 3e 2d 64 14 bd
       0.02629012 0.15489188 0.21800806 -0.036228348
000350 85 94 95 be cb 38 80 3e e5 52 c1 3d 40 cc 79 bd
       -0.29214874 0.2504333 0.09439639 -0.060985804
000360 39 25 04 3e 20 f8 ad be 42 25 68 3e c0 d2 e1 bd
       0.12904824 -0.33978367 0.22670463 -0.110265255
000370 29 8c c7 be 03 f2 88 bd dd 38 0b bf 06 dc 7d 3e
       -0.3897412 -0.06686785 -0.5438364 0.24790964
000380 f6 b9 85 3e 11 02 70 be 72 c3 aa 3e 3f 8e 88 be
       0.2611844 -0.23438288 0.33352238 -0.26671025
000390 43 73 77 3e f9 84 fb 3d 65 ea 8a 3d fe 3c a9 be
       0.24165063 0.12281222 0.067829885 -0.33054346
0003a0 b9 d7 b8 bc c0 44 bf be b7 ac 46 be b3 32 9f 3e
       -0.022563802 -0.3735714 -0.19401823 0.31093368
0003b0 f7 25 ae bb 62 e9 50 3e fb 8b a9 be e4 95 4a 3e
       -0.0053145844 0.20401528 -0.3311461 0.19783741
0003c0 ca 8e 66 3e fd d8 a0 3d 56 d2 4d 3e 76 2e ce 3c
       0.22515407 0.07853887 0.20099768 0.025168639
0003d0 f8 24 38 3e 74 37 22 be b1 3a b9 3e 5a 24 82 bd
       0.17982852 -0.15841466 0.3617759 -0.0635459
0003e0 1c 9c 82 3e 43 b4 ab be d3 d9 74 3e 3d 4b d6 be
       0.25509727 -0.33535966 0.23911218 -0.41854277
0003f0 ac d3 0d be 54 1a ac 3d 73 79 9e 3e c0 39 93 be
       -0.13850278 0.08403459 0.30952033 -0.28754997

layer2/b f4 [100]
000000 a3 57 9e 3d 94 68 9d 3d d8 14 e6 3d 87 7a d7 3d
       0.07731559 0.07685962 0.112344444 0.10521417
000010 ae ee f1 3d 23 96 01 3e 78 65 0c 3e 01 9c d6 3d
       0.11813103 0.12654929 0.13710582 0.10478974
000020 17 1d ef 3d 28 49 90 3d 82 6d 8b 3d 36 10 00 3e
       0.1167547 0.070452034 0.06807996 0.12506184
000030 cd 44 de 3d 0e 93 91 3d bb fa fb 3d dc 6e a1 3d
       0.108529665 0.071081266 0.123036824 0.07882473
000040 4d a0 94 3d 0d 5f 9f 3d e2 55 e5 3d a1 2b 98 3d
       0.072571374 0.077818014 0.111980215 0.074301966
000050 a1 28 d9 3d 14 a6 96 3d 43 4b f9 3d 62 cc cb 3d
       0.106034525 0.07355896 0.12172558 0.09951092
000060 6b dd 8e 3d 3a 17 8e 3d 94 6d f8 3d 75 e4 db 3d
       0.06975826 0.06938024 0.12130275 0.10736934
000070 c4 ef ff 3d 5a 75 ff 3d 1c 0b f4 3d 83 42 90 3d
       0.124969035 0.12473555 0.119161814 0.07043936
000080 78 cb b4 3d 62 63 05 3e 7b 86 98 3d c0 6d 87 3d
       0.08827871 0.13026193 0.07447525 0.0661273
000090 59 56 01 3e 46 04 02 3e 04 15 92 3d 13 ad be 3d
       0.12630595 0.12696943 0.07132915 0.09310355
0000a0 06 d7 02 3e 7b cf 94 3d 37 df f3 3d 1f ed 94 3d
       0.12777337 0.07266136 0.11907809 0.0727179
0000b0 f4 51 8e 3d f4 6b f0 3d 60 30 ab 3d 7e 25 cf 3d
       0.06949225 0.117393404 0.08358836 0.10114573
0000c0 ad e5 93 3d 68 da 01 3e 0e 4c 9f 3d 78 9b 0a 3e
       0.072215416 0.12680972 0.07778178 0.13535869
0000d0 56 77 b6 3d 5f 6e d2 3d 0f 5f e4 3d 64 ee 9a 3d
       0.0890948 0.10274958 0.111509435 0.07565001
0000e0 e2 4a a1 3d 4e 9f 9e 3d af 46 be 3d a5 c1 99 3d
       0.07875611 0.07745229 0.092908256 0.07507638
0000f0 10 a8 89 3d c2 a1 9f 3d 88 c4 02 3e 4d 05 01 3e
       0.067215085 0.07794525 0.12770283 0.12599678
000100 69 06 fb 3d 76 42 98 3d 2d 0e 00 3e 32 69 e3 3d
       0.12257082 0.074345514 0.12505408 0.11104049
000110 5b cd f9 3d ce ec 9e 3d 7d 36 00 3e fb d3 fe 3d
       0.121973716 0.07760011 0.12520786 0.12442776
000120 94 41 8d 3d 92 83 08 3e 7e 18 ad 3d c0 99 f4 3d
       0.06897274 0.1333144 0.08451937 0.11943388
000130 42 60 ea 3d e9 a4 06 3e f8 94 94 3d f9 3e 8d 3d
       0.11444141 0.13148846 0.07254976 0.06896777
000140 f3 6a 95 3d 7f f5 f0 3d 08 a7 99 3d cd 46 02 3e
       0.072957896 0.11765575 0.07502562 0.12722321
000150 81 72 97 3d e9 f1 01 3e 0e 88 fa 3d 2f 0e 9d 3d
       0.07394887 0.12689938 0.122329816 0.07668721
000160 fa 67 a2 3d 69 0c 9f 3d b2 46 eb 3d 9e 6f 8f 3d
       0.07929988 0.07766039 0.114880934 0.07003711
000170 c0 b5 cd 3d 4d 39 da 3d 95 54 d0 3d 83 b7 ee 3d
       0.10044432 0.106554605 0.10172383 0.11656096
000180 a2 17 03 3e 38 37 04 3e 57 b6 92 3d 76 d0 fc 3d
       0.12801984 0.1291169 0.07163685 0.12344448

layer3/W f4 [1, 100]
000000 f4 b8 b9 be f3 a1 aa be 3e a8 b2 3e a9 6f d9 3e
       -0.3627392 -0.33326682 0.34893984 0.42468002
000010 bd 44 25 3f 7e 0f aa 3e ff d3 11 3f dc 65 d3 3e
       0.6455801 0.33214945 0.56964105 0.4128865
000020 f9 f3 15 3f bd b3 a6 be f3 a6 a1 be 1b f1 b2 3e
       0.585754 -0.32559004 -0.31572685 0.34949574
000030 eb a1 df 3e 57 70 9c be 4f 12 cf 3e 37 68 c0 be
       0.4367822 -0.30554458 0.40443656 -0.3757951
000040 e5 96 89 be 63 11 70 be fa 97 c2 3e 6c 30 b5 be
       -0.26872936 -0.23444133 0.38006574 -0.35388505
000050 2c 1e c9 3e 71 61 9b be 05 b4 b7 3e 4c b7 be 3e
       0.39280832 -0.3034778 0.35879532 0.3724922
000060 93 7b 69 be da 13 95 be 69 67 02 3f ec 07 b3 3e
       -0.22801046 -0.29116708 0.5093904 0.3496698
000070 db c2 ea 3e ac fe b7 3e ab 48 30 3f 50 ef 95 be
       0.45851788 0.35936487 0.6886088 -0.29284143
000080 ec ba d7 3e 22 b0 f1 3e a2 23 9e be 85 9c 6e be
       0.42134798 0.4720469 -0.3088656 -0.23301895
000090 4d 23 e4 3e 42 50 ab 3e 1b aa 8c be 38 83 14 bf
       0.44558182 0.3345967 -0.2747353 -0.58012724
0000a0 3c 68 09 3f 05 ad a3 be 34 2c b2 3e 2a f1 9d be
       0.53674674 -0.3196794 0.3479935 -0.30848056
0000b0 be 35 93 be 9d c6 cb 3e e8 6a ed be c7 4a b6 3e
       -0.2875194 0.39799967 -0.46370625 0.35603926
0000c0 37 2d a5 be 39 f8 eb 3e b1 df b4 be 90 72 e6 3e
       -0.3226106 0.46087816 -0.35326913 0.4500928
0000d0 01 41 bf 3e ff cc dd 3e 56 e2 a6 3e b0 1a b1 be
       0.37354282 0.43320462 0.32594556 -0.34590673
0000e0 78 90 a6 be dc 4a b3 be 27 90 d0 3e b5 91 b2 be
       -0.32532096 -0.3501805 0.4073498 -0.3487679
0000f0 9f f7 8b be 79 5d b9 be 90 51 ef 3e 56 6f 0c 3f
       -0.27337357 -0.36204126 0.46741915 0.54857385
000100 e1 f1 02 3f d7 85 a8 be 61 dc 03 3f 9c 65 cb 3e
       0.5115033 -0.32914612 0.51508147 0.3972596
000110 a2 db dd 3e 52 4d af be f4 28 bc 3e 5d ae 22 3f
       0.4333163 -0.34238678 0.36749995 0.6354731
000120 1c 09 92 be 9b fb 12 3f c0 c6 b0 be ce 69 e3 3e
       -0.28522575 0.5741517 -0.34526634 0.4441666
000130 15 84 39 3f 85 d7 0a 3f 0e 4f a6 be 55 67 8d be
       0.72467166 0.54235107 -0.3248219 -0.276179
000140 f9 7c 93 be 7b d3 03 3f c7 4f be be 6f 68 b9 3e
       -0.28806284 0.5149457 -0.3717024 0.3621249
000150 81 92 86 be 12 b3 e7 3e d4 45 d8 3e fc ba b5 be
       -0.2628365 0.45253807 0.42240775 -0.3549422
000160 cf 89 9b be 67 05 b8 be 43 59 e2 3e b3 ef 7c be
       -0.30378577 -0.35941622 0.44208726 -0.24700813
000170 59 9e 0f 3f 3e da b3 3e 1c d3 c7 3e 7d 85 19 3f
       0.56100994 0.35127443 0.3902825 0.5996931
000180 32 97 be 3e ff 56 db 3e c4 94 8c be 19 14 a6 3e
       0.37224728 0.4283981 -0.2745725 0.32437208
