critic_network.model (npz, 45309 bytes, 5 tensors)

layer1/W f4 [110, 5]
00000000: 3413 80be 8079 16bf 8d83 843e ebfa d43e
00000010: 2a41 073f 0dba 70bf 50ff 26be 3b2e d9be
00000020: 2043 643f d83b 9d3e 369e 14bf 2c1c c63c
00000030: aee8 6c3e 69f6 dc3e f6a6 30bf 0f3a 0c3f
00000040: 14df 173f 329d f2be a712 273f 98d1 813f
00000050: 609f cabe 68a1 85be d748 b7bc f5bf 70bf
00000060: 6024 bcbd 8cd2 013e 2f05 6b3e 23e0 103f
00000070: 2270 26be e223 103f 179b 043c 149c 16bf
00000080: db14 7fbf 7658 00bf e636 123f c6e0 893d
00000090: 5079 10bf ffca 5ebf 3574 283d 408a 11bf
000000a0: 73e5 c9be 46eb d4be 1e80 d9be 8d49 75bf
000000b0: cbd7 633f c219 eebe e620 3fbf 387b 29bf
000000c0: c6dc 8a3e 3056 5a3f fc00 5cbe f11e 1f3f
000000d0: fec0 3ebf 14f3 66be 91ad 15be f056 50bd
000000e0: 4ec3 b4bf ab19 b0be 28a4 b2be abc6 94bd
000000f0: 7e19 203e 6832 c83d ece1 1b3e fff9 583f
00000100: 6b29 5c3e bee5 943e d24e adbe cefb acbe
00000110: 95f4 f13e 1708 4d3f 3c18 37bf e2a2 21bb
00000120: 3bf6 d63e b6bf 0cbf b954 28bf c344 d5bd
00000130: a87e 31bf a75b 9a3f 51cd 15be eb92 8dbf
00000140: 755d 8dbe 83b1 cb3d 6369 e2be ae1c 0d3e
00000150: 5322 903e d6fd 183f ece1 23bf 7d9f c93d
00000160: 9e5c dd3e 8c5d a1be e0b5 c33d 909c 87be
00000170: 4f23 98be c91b d33d 27f5 3a3f ec52 683d
00000180: 5ba2 1a3f dca2 723e 92b3 9b3d 046a 45bf
00000190: a2cd 09bf 0f46 aebe 43ae 503f f81d ae3e
000001a0: 4ba4 f2be 4f78 b4bd 25c8 5d3e 2e66 d1be
000001b0: 7927 483e c2ff 5dbf d983 17bd 7070 393e
000001c0: 3061 163f 77bd 163f f389 88be 3810 5f3e
000001d0: be9b d33e 7f47 b3be 339d 13bf c54d a13e
000001e0: 42cc b23e 6f7b 563e 50d5 183f e0f3 403e
000001f0: 35f2 1b3e a261 033f b2e8 c0be edcf c53c
00000200: ae00 4bbc 038a 19bd ac76 80be 3b55 223c
00000210: e5a2 69bf c585 d4be 0d42 223e ba03 3ebe
00000220: 715a 42be a907 943e 2a19 cf3e 2f95 7f3f
00000230: 4395 f53e b512 dbbd 4f9a 96bd 683b 22bf
00000240: e49b 8d3e 28d8 9a3e ddb3 b5bd 661c e1bd
00000250: 92a4 003f 3cc8 de3e e9f6 8fbf d4c6 3e3f
00000260: 4cbc 8abd 61f5 bc3d a666 5fbe 12c5 1fbe
00000270: cc20 493f b69c e73e 9bbf 243e 8d94 c43e
00000280: f41d babe ece3 143e d025 55bf 7e2c e63e
00000290: 5cc1 1dbf ae11 2b3e 49fd 4cbe d0df d2bd
000002a0: 5a5d 263f 586b c63e d0c8 f83d 7ff2 7c3f
000002b0: d30f 4f3f 4b73 abbd 3ec2 88be 4244 81bd
000002c0: a844 0c3e 5ba4 7aba 6ceb b83c c1f4 40bf
000002d0: 1c50 313e fc7b 173e 403f f23d fe0f debe
000002e0: 0368 87bd 49cd e8be cd67 993e 5a6e 103f
000002f0: e99a c83e 982b 0ebe fed6 413f da41 c1be
00000300: 3002 93be 16f0 653e fe4d 7bbe b7ed b6be
00000310: 8a41 743d 74f3 313f 523c 0ebf 3b05 323e
00000320: 76ea c3bd b48b babd a036 fabd d67f 883e
00000330: dc97 83be ed4b 1dbf 3f88 333f 2333 c7bc
00000340: 3933 0fbe 279b eb3d d07f f8be 9c17 c9bd
00000350: 8ad5 15bf e5b0 a7bd a184 593e bd26 233e
00000360: 427e c3be c49b a7bf 7ab8 f23e a5d2 753e
00000370: 391a 8ebe 7f38 5f3d c5f5 1fbf a2a1 04be
00000380: 1010 e73d f2b6 a3be 7a9f 183e c7b5 8c3e
00000390: 53aa 1fbf 9b3d 51bf a1b9 5dbe 885b 723e
000003a0: fea0 93be d9d2 ba3e dc77 0b3f 4fbf 8e3e
000003b0: 8bd5 563e 4e7c 55bd 9414 0ebf 7a80 62bf
000003c0: 455c 343f 718b 2bbd bb91 ff3e 7480 3dbf
000003d0: 43e8 f1be 62dd 09bf 816d 093f dac4 a33e
000003e0: e1d4 b43e ae65 d23d 0229 303d f4bc 05bf
000003f0: 498c 26be 5758 4a3e 3a1e 2abf 512d b33e
-0.2501465 -0.58779144 0.25881615 0.41597685 0.5283381 -0.9403389 -0.16308331 -0.42418084
0.89164925 0.3070972 -0.5805391 0.024183355 0.23135635 0.43156746 -0.6900476 0.5477609
0.59324765 -0.47385556 0.65262836 1.0142088 -0.39574718 -0.26099706 -0.0223736 -0.94042903
-0.091866255 0.12677974 0.22951196 0.56592005 -0.16253713 0.5630475 0.008093617 -0.58831906
-0.996412 -0.5013498 0.5711502 0.06732325 -0.5643511 -0.870285 0.04112645 -0.5685158
-0.39432868 -0.4158575 -0.42480558 -0.95815355 0.8900115 -0.46504027 -0.74659574 -0.6620364
0.27121562 0.8528776 -0.2148475 0.6215659 -0.7451323 -0.22553664 -0.14616992 -0.05086416
-1.4122102 -0.34394583 -0.34890866 -0.072644554 0.15634724 0.09775239 0.15222901 0.84756464
0.21500175 0.2908153 -0.33849198 -0.33785862 0.47256914 0.8009047 -0.71521354 -0.0024663736
0.41984734 -0.5498003 -0.65754277 -0.10413506 -0.6933389 1.205922 -0.14629103 -1.1060461
-0.27610365 0.09945967 -0.4422103 0.13780472 0.28151187 0.5976232 -0.64016604 0.09844873
0.43234724 -0.31516683 0.09556174 -0.26486635 -0.29714438 0.10308034 0.7303032 0.056719705
0.60403985 0.23694938 0.0760261 -0.7711489 -0.53829396 -0.34037825 0.815159 0.3400724
-0.4739097 -0.088120095 0.2165838 -0.4089827 0.19546308 -0.8671838 -0.036990974 0.18109298
0.58742046 0.5888285 -0.26667747 0.2178353 0.4132976 -0.35015485 -0.5766174 0.31504646
0.3492146 0.20945524 0.5970049 0.18843031 0.15229113 0.5132085 -0.37677532 0.024146998
-0.012390299 -0.037485134 -0.2509054 0.009908016 -0.9126418 -0.41508308 0.15845509 -0.18556109
-0.18979813 0.28912094 0.40448886 0.9983701 0.4796544 -0.106969275 -0.07353651 -0.63371897
0.27657998 0.3024304 -0.08872197 -0.10991745 0.50251114 0.43512142 -1.1247226 0.7452214
-0.06774196 0.0922649 -0.21816501 -0.1560252 0.7856567 0.45236748 0.16088717 0.38394585
-0.36350977 0.1454007 -0.8326082 0.4495582 -0.6162317 0.16705963 -0.20018496 -0.10296595
0.64986193 0.38753772 0.12147677 0.9880752 0.8088352 -0.083716 -0.26710695 -0.06311847
0.13698065 -0.0009561234 0.022573195 -0.75373465 0.17315716 0.1479339 0.1182847 -0.43371576
-0.066116355 -0.4546912 0.29962006 0.56418383 0.39180687 -0.13883817 0.7571868 -0.37745553
-0.28712606 0.22454867 -0.2454147 -0.35728237 0.059632815 0.69512105 -0.5556079 0.17384808
-0.09566204 -0.091086775 -0.1221745 0.2666003 -0.25701797 -0.6144398 0.7012977 -0.024316376
-0.13984384 0.11504202 -0.48535013 -0.09818956 -0.5852896 -0.08188037 0.21242 0.15932746
-0.38182265 -1.3094411 0.4740637 0.24006136 -0.2775438 0.05449724 -0.6248439 -0.12952283
0.112823606 -0.31975514 0.14904585 0.27482435 -0.6236927 -0.8173463 -0.21652843 0.23667729
-0.28833765 0.3648899 0.54479766 0.27880332 0.20979898 -0.0521205 -0.5550015 -0.8847729
0.7045329 -0.04188103 0.4991587 -0.7402413 -0.47247514 -0.5385343 0.53682715 0.31986123
0.35318664 0.102733 0.043007858 -0.52241445 -0.16264452 0.19760261 -0.6645237 0.3499551

layer1/b f4 [110]
00000000: 3e58 d33c 48d7 9c3c 2e5f dc3c 724f e93c
00000010: 8963 733c b1da e13c c4f1 e9bc 96f0 a43c
00000020: 3a00 1f3d abc8 e33c 7175 cebc 11f3 cc3c
00000030: eaa5 b93c 6b11 df3c 8e84 de3c 0d31 e33c
00000040: 0a97 d23c 3377 aa3c 02e5 fe3c 1f0b ee3c
00000050: 937a 9d3c ed35 e23c c549 4e3c 0ed0 013d
00000060: 5e64 d03c b42b 833c 6fff 1ebc 6b51 e53c
00000070: d4c8 df3c 9125 583c 879d d23c 4515 e63c
00000080: 37f0 963b 8f06 d73c 1cc9 0d3c c899 d73c
00000090: 5730 aa3c ca2c fc3c 5c3a 983c ab24 1e3d
000000a0: 1e6b d73c aad0 90bc 5440 eb3c df0e 953c
000000b0: 6ee6 b93c 94e4 c33c f0bc dc3c 564a de3c
000000c0: 2fd4 d63c e2d5 c03c 1f7f d03c 7fc3 ad3c
000000d0: 56a3 a73c 7169 413c a388 e43c 434d 1c3d
000000e0: 2194 df3c 337a f23c 09be 4e3c 10b6 de3c
000000f0: 3cb7 bdbc fa42 ec3c 95d8 42bd 1bc7 bd3c
00000100: 2be6 953c 97c0 d53c f30f c63c b968 c23c
00000110: 6c6a db3c 9cbe c03c f030 533c 6a55 fd3c
00000120: 8e2b 033d 79ce 033d 2117 d53c e51d a63c
00000130: 20af e23c fc39 cf3c 4bd3 063d 6252 c23c
00000140: 56ff e03c 82f4 b33c 8988 893c d4ba 8dbc
00000150: 6e75 e43c eae8 803c d1ce f13c 2aa8 d93c
00000160: 8cf7 eebc f042 afbc 85da ea3c def0 a83c
00000170: 4ff4 cf3c 4202 983c d00f df3c 74c2 9e3b
00000180: 3cd3 f73c e64f f23c 5117 e03c 7bc2 f63c
00000190: facb eb3a 539d f63c fe7d f43c 69ea dd3c
000001a0: 36bd f73c a22f b83c 6804 013d 968d 9e3c
000001b0: 5a4c cb3c d819 183d
0.025798913 0.019145623 0.026900854 0.028480265 0.014855274 0.0275701 -0.028557666 0.020134252
0.038818575 0.027805647 -0.025202485 0.025018247 0.022662122 0.027229985 0.027162816 0.02773335
0.025706787 0.020808792 0.031115059 0.029058037 0.019223487 0.027613604 0.01259083 0.031692557
0.025438484 0.01601205 -0.009704455 0.027992925 0.027317442 0.01319255 0.02570988 0.028086314
0.0046062726 0.026248245 0.008653905 0.026318446 0.020775003 0.030783076 0.018582515 0.038609188
0.026296195 -0.017677624 0.028717197 0.018195568 0.022692885 0.023912705 0.026945561 0.027135056
0.026224224 0.023539487 0.025451241 0.021211384 0.020463627 0.011804924 0.027897185 0.03815962
0.027292313 0.029599285 0.01261855 0.027186424 -0.023158662 0.02884053 -0.04756983 0.02316623
0.01829823 0.02609281 0.024177527 0.023731576 0.026784144 0.02352839 0.012890086 0.030924518
0.03202396 0.03217933 0.026012005 0.020277927 0.027671397 0.025296204 0.03291635 0.023720924
0.027465504 0.021967176 0.016788738 -0.017301 0.027888026 0.015736062 0.029517563 0.026569445
-0.029170774 -0.021394223 0.028668651 0.020622667 0.02538505 0.018555764 0.02722922 0.004844958
0.030252092 0.029579114 0.027354868 0.030122032 0.0017989867 0.030104315 0.029845234 0.027089315
0.03024159 0.02248365 0.031498343 0.019354623 0.02481668 0.03713402

layer2/W f4 [100, 110]
00000000: 4a3a 463d f8a5 a73d 1fe1 ad3d e5da 8d3d
00000010: 97d3 02bd acb6 893d d103 50bd 15fd 1fbe
00000020: 0faa e6bd 7850 b4bd 4afa b43c 0d89 ffbd
00000030: e315 4c3d f944 1b3e 7b56 d73b d9d7 95be
00000040: a585 dabd 8cff 8a3c 38c7 e33c 79af 143e
00000050: 16cc 013d b8cc a73d b54c 89bd 08cf 31be
00000060: 8bd6 5bbd e991 313e 0b97 df3d 2c54 75bc
00000070: da1d 30be 56c1 373d 760f 54be cef8 c03d
00000080: 22ce 5bbd 4c29 313e 1b00 fdbc 3dbc fe3d
00000090: eaeb b6bd bbd1 7a3d 208f aebd 36fe e43d
000000a0: 3f06 06be d5cc 41bd 25c4 e13c b711 88bc
000000b0: 21e7 10bc 513f 953d dbdf f53d b7e3 5dbd
000000c0: 3ac7 b93b 2051 d73d 5095 8dbc 0f6a a0bc
000000d0: 87d3 bf3d c355 cbbc 75a5 4c3e 725b bbbd
000000e0: 541d 34bd 1d85 4dbd d426 093e d31e 1e3e
000000f0: b99a 0d3e 4391 0dbe fe11 843c 6a15 dabd
00000100: 58b9 33bd 6227 f4bd c1d1 093e 18de 37be
00000110: a5ef a1bd 2b14 303d f607 6f3b 1e6d 1e3e
00000120: 9b67 9cbd 2193 453e e038 47bd 1462 d2bd
00000130: 6540 62bd 20eb 093e 0b12 a73e d2e8 eabd
00000140: ae57 a33d 3e0b bbbd ad38 d83b 4668 893d
00000150: 4db4 89bd aef7 893c edef 953d dd79 e7bc
00000160: 63c3 5ebc 0c44 53bc 29d1 1b3c a004 2e3e
00000170: 94a3 1b3e 7705 d1bc 1ef5 9bbd c084 f6bd
00000180: acda 883e fc03 73bd 6913 b03d ee0d 54bd
00000190: 927f 01be b442 10be 91dd 613d 296c 33bd
000001a0: b69e 4f3e 6c2e 3bbe c3a1 68bc 3766 303d
000001b0: f8cd 3b3c 8882 e53d 0a32 59bb 06c7 80bd
000001c0: 3053 94bd f2e3 1e3e 3607 2fbd b675 293e
000001d0: 6c3e ecbb 37e3 0a3d 892a 90bd 5ed8 d83d
000001e0: 313c c33d 026a 9bbd 294b f03a 8440 003e
000001f0: 4614 583e 7d2d 273e 0221 a33b 3196 95bd
00000200: f38e 8abc ed36 51bd 8058 27bd 273c 54bd
00000210: 0199 0cbe 807f 04bb d849 1d3e a88d 54ba
00000220: 8058 cebb 3b21 e3bc 6068 c4bd c27d 483d
00000230: 9b36 b33d f68b 823e c963 753d d1d2 363d
00000240: bf60 39bb ceaf d6bc fd96 36be cb0e 85bd
00000250: 9465 703e 1eaa 1d3e 5ca4 9a3b beec c23d
00000260: 00cc c6bd 69cf 1fbe 6ae0 0a3c 5868 343d
00000270: 789e 5a3c d658 26bd 690e 8bbd af15 713d
00000280: c03a 253d d5b7 edbd a1fc aebc ba23 25be
00000290: 41b3 aabd fc77 8dbd 719d d53d 23fd 293d
000002a0: 87ef eabd 1b2c ad3d 4e33 48bd 8f92 a6bd
000002b0: 59a1 f63c c507 ca3b 6f91 d3bd a65e ae3d
000002c0: ce70 3abd 6ae6 663d c172 2b3e edeb f23d
000002d0: e5f8 dfbb 1cd5 fb3d 2573 313e 36de cdbd
000002e0: be28 e13d 97e6 513e cf00 a13d e455 353d
000002f0: eee0 ba3d 0978 ef3d 1bb4 fe3c ae65 83bc
00000300: 7fe1 9e3d f44a 963d 4944 5f3e d238 b63d
00000310: 07f7 1c3d da64 573d 595e c6bc cf00 93bc
00000320: 93ec 28bc 29eb 123e 0934 dcbd e220 923d
00000330: eb65 f63c e545 483c affb afbd 97a3 923d
00000340: 6ff5 d8bd 240e 293c b4cd 0dbd 309e b5bc
00000350: e8b1 9bbd b583 bcbd 6fcc ef3d c28a 1f3e
00000360: 6d91 613c ac20 53bd 8dad 0c3b 6999 053e
00000370: 142f 133d 24c8 67bd ecb8 94bd 821e 11be
00000380: eb36 083e 5f35 043e 4d0e 8ebb e4fd 50bc
00000390: 21c6 ee3d 64e7 28bc dc24 15bd 25df 803d
000003a0: d132 0c3e f339 d93d 0aaa 25bd 2d00 3dbd
000003b0: ab94 be3b 5006 99bd 7919 a33d 22a0 cfbd
000003c0: 5c2a 383b 7e66 fa3c 4e4f 7ebb 04d3 de3d
000003d0: 5d3f 153e 7296 283e 86fd 4c3e 7dbb 3b3e
000003e0: 6a4e 8c3d 914a 6a3e 10d7 953d 034e a9bc
000003f0: 47af d4bd ffab 8a3d 24f0 b8bd d404 e3bd
0.048395433 0.08185953 0.08490204 0.069265164 -0.03194007 0.06724295 -0.05078489 -0.15623887
-0.11262905 -0.08804411 0.022092003 -0.12477312 0.04982556 0.1516303 0.0065715886 -0.2926624
-0.10670022 0.016967557 0.027804956 0.14520063 0.031688772 0.08193344 -0.06704084 -0.17364132
-0.0536714 0.17340817 0.10917481 -0.014973681 -0.17198887 0.044862114 -0.20709023 0.09422456
-0.05366338 0.1730091 -0.03088384 0.12438247 -0.08931716 0.06123517 -0.08523393 0.111812994
-0.1308832 -0.047314484 0.02755935 -0.01661001 -0.008844168 0.07287467 0.12005588 -0.054172244
0.0056695016 0.1051352 -0.017283112 -0.019581823 0.093665175 -0.024821168 0.19984992 -0.09148301
-0.043973282 -0.050175775 0.13393718 0.15441446 0.13828553 -0.13824944 0.01612186 -0.10648616
-0.04387793 -0.11921574 0.13458921 -0.17955816 -0.07907037 0.042987984 0.003647325 0.15471312
-0.07636949 0.19294406 -0.048638225 -0.10272613 -0.055237193 0.134686 0.32630953 -0.11470188
0.07975708 -0.09133004 0.006598553 0.06709342 -0.06723843 0.016841736 0.07321153 -0.028256351
-0.0135963885 -0.012894642 0.009510317 0.16993952 0.15199119 -0.025515301 -0.07615112 -0.12037039
0.26729333 -0.05932997 0.08597452 -0.051771097 -0.1264632 -0.14087945 0.055142943 -0.04380432
0.20275387 -0.18279427 -0.014198723 0.04306623 0.011462681 0.112065375 -0.0033141398 -0.06287961
-0.07242429 0.15516642 -0.042731486 0.1654881 -0.0072095897 0.033908095 -0.07039363 0.10588144
0.09532965 -0.07588579 0.0018332946 0.12524611 0.21101484 0.16325946 0.0049783 -0.07304037
-0.016913867 -0.051077772 -0.040855885 -0.05181518 -0.13730241 -0.0020217597 0.153602 -0.00081082666
-0.006297171 -0.027725806 -0.095902205 0.048948057 0.087506495 0.25497407 0.059909616 0.044634644
-0.0028286425 -0.026206877 -0.17831035 -0.06496962 0.23476249 0.15396926 0.0047193 0.09517811
-0.09706879 -0.15606464 0.008476356 0.044044822 0.013343446 -0.040612064 -0.06789858 0.05885857
0.04033923 -0.11607329 -0.021360697 -0.1612691 -0.08334971 -0.06907651 0.1043042 0.041501176
-0.114714675 0.08455678 -0.048877053 -0.081334226 0.030106233 0.006165477 -0.10330474 0.085141465
-0.045517735 0.056372084 0.16742994 0.118614055 -0.0068350905 0.12296507 0.1732908 -0.10052149
0.10994099 0.2049812 0.07861482 0.044271365 0.09124933 0.11692817 0.03109174 -0.016039696
0.07757854 0.07338515 0.21803392 0.08897556 0.03832152 0.052586414 -0.02421491 -0.017944722
-0.01031031 0.14347519 -0.107521124 0.07135178 0.030077895 0.012223695 -0.08592927 0.071601085
-0.10593688 0.010318313 -0.034620002 -0.022170156 -0.07602292 -0.092048086 0.117089145 0.15580276
0.013767582 -0.05154483 0.002146575 0.13046803 0.03593357 -0.056587353 -0.072618335 -0.14171794
0.133022 0.12910984 -0.004335201 -0.012755845 0.11658884 -0.010309074 -0.036412105 0.062925614
0.1369126 0.10606756 -0.040445365 -0.046142746 0.0058160624 -0.07471907 0.07963843 -0.10137965
0.002810142 0.03056645 -0.0038804593 0.10880092 0.14574952 0.1646364 0.20018587 0.1833324
0.06850894 0.22880007 0.073164105 -0.020667082 -0.10384994 0.06771087 -0.09030178 -0.11084905

layer2/b f4 [100]
00000000: 2674 e43c 6025 ee3c cb17 9e3c 5b85 e13c
00000010: 21d3 e73c fbf1 d03c bcdd f43c 28ac b43c
00000020: 95ba fb3c 8c39 e2bc 3be5 fb3c b8d2 de3c
00000030: 0bf2 dd3c d4fd dfbc 2ba1 e23c 33e5 c93c
00000040: c19a df3c 5451 e7bc f3b9 e03c 522b d43c
00000050: 1006 fd3c 8ae0 e73c 55d5 ef3c d1c9 fe3c
00000060: 44f1 e83c 67bc d63c 17e7 fc3c 772f f63c
00000070: 611a f03c adeb e33c 728e c83c 293c e23c
00000080: fe93 e83c b1f0 e4bc e82f e13c a109 e7bc
00000090: c7ae e53c 1cc1 fb3c 3894 e5bc c36e ecbc
000000a0: 5f8c d53c 82ed b73c a3c8 db3c 8503 e63c
000000b0: 638c d4bc 73ef ea3c 3aa4 e93c 7309 ec3c
000000c0: a44f 013d fae0 053d 97b3 cd3c 9f8f 003d
000000d0: 2dee b33c b902 de3c 7094 f63c 8c89 b53c
000000e0: f609 fc3c 50f8 e8bc 97a5 153d f663 e3bc
000000f0: 9b3b ddbc 1f08 f73c 41e2 ba3c 917a f1bc
00000100: a0a8 e8bc d990 e43c b9f0 c23c 647e ff3c
00000110: 1611 e4bc 914c e33c 184f e1bc 85a9 e93c
00000120: 72ea bd3c 10e1 ddbc 58d6 e1bc 14ff e53c
00000130: f758 d4bc e82a 003d 8b3e dfbc 9e9d e03c
00000140: 3a4b c83c 1c6a ee3c 135a e7bc 3429 023d
00000150: 1279 b03c 8431 c33c 5d11 e83c f8dd eb3c
00000160: 9216 ec3c ea84 e33c 8870 e2bc 15eb e53c
00000170: d386 d53c eec2 df3c eb04 b93c 5af9 f13c
00000180: b118 e8bc 6d3b e43c aac0 e9bc 86b6 c23c
0.027887415 0.029070556 0.019298455 0.02752941 0.028298916 0.02550601 0.029890887 0.022054747
0.030728618 -0.027615331 0.030748954 0.027200088 0.027092954 -0.027342714 0.027664742 0.024645424
0.027295472 -0.028237022 0.027432417 0.025899563 0.03088668 0.02830531 0.02927653 0.031102093
0.028435357 0.026212884 0.030871911 0.03005193 0.029309453 0.02782234 0.024481986 0.027616577
0.02839088 -0.027946802 0.027488664 -0.028202834 0.028037442 0.03073173 -0.028024778 -0.028861409
0.02606791 0.02245212 0.02682907 0.02807785 -0.025945848 0.028678631 0.028520692 0.0288131
0.03157009 0.032685257 0.02511005 0.031386968 0.021964157 0.027100908 0.030100077 0.022160314
0.030766468 -0.028438717 0.036534872 -0.027757626 -0.027005961 0.03015524 0.022812964 -0.02947739
-0.02840072 0.0279011 0.023796426 0.031188197 -0.027840178 0.02774647 -0.027503535 0.028523216
0.023183081 -0.027084857 -0.027568027 0.028075732 -0.025921328 0.03129092 -0.027251502 0.027418908
0.024449933 0.029103331 -0.028241193 0.031777576 0.021542106 0.023827322 0.028328592 0.028792366
0.028819356 0.02777334 -0.02764155 0.028066197 0.026065266 0.02731463 0.022585353 0.029537845
-0.028332086 0.027860368 -0.028534252 0.023768675

layer3/W f4 [1, 100]
00000000: fe9a ca3c b487 df3c 2d41 6d3c 2497 da3c
00000010: a2c9 b53c 3559 b93c f78a 963c f192 893c
00000020: cd98 b73c 14a8 90bc f9b1 c03c 72f5 963c
00000030: eeb6 8c3c 42e5 a6bc 9e72 e43c 8299 9eb7
00000040: 8e70 c03c 539b b5bc dbb8 6d3c 3041 983c
00000050: 9baa b63c 07a8 a33c 4550 d93c 3f16 843c
00000060: 31a2 c03c cf26 883c 5fd5 a63c 3213 bf3c
00000070: d740 b33c fb8e a03c 0c5b a83c 0e1b c13c
00000080: d10e ab3c 38c5 abbc 2529 8f3c efd4 bebc
00000090: 7796 ed3c 087b 063d f7c9 a1bc c013 bebc
000000a0: 342b 513c f681 893c afc8 f33c a319 a53c
000000b0: c2be 76bc a180 d13c 3a26 b73c f3f1 bf3c
000000c0: 4cb9 ac3c c08b 9f3c 7a88 d03c 8c27 a63c
000000d0: 4d36 773c 3550 933c 8f2d 9b3c 8f3f 973c
000000e0: d760 de3c ab24 c7bc eff6 1a3d 22a2 99bc
000000f0: 7529 a3bc cb8e 943c 6ee4 5b3c 7865 12bd
00000100: d0b2 d9bc e45c 9c3c 861d b23c d03a a93c
00000110: 68c8 9dbc c4d9 8e3c 9307 b1bc d7d0 bf3c
00000120: 6af9 a63c 9314 b5bc bf53 88bc 3b1d a93c
00000130: 9432 a8bc 1c2d 683c 9ff4 ccbc 0174 8d3c
00000140: 5fef cb3c f6aa b53c 352e b5bc 8fa7 c43c
00000150: 7c8d a93c 1de2 5f3c 0402 963c c6c4 c73c
00000160: 1f6a b03c 9f47 973c f923 95bc 38e3 913c
00000170: eeb3 bf3c 2526 ad3c 6836 a93c adff c33c
00000180: eb65 c7bc 3fbc a33c 7ae9 c6bc 47d0 c33c
0.02473211 0.027286388 0.014480871 0.026683398 0.022190873 0.022625545 0.01837681 0.0167937
0.022411728 -0.01765827 0.023522364 0.018427584 0.017177071 -0.02037299 0.027886685 -1.890655e-05
0.02349117 -0.02216879 0.014509405 0.018585771 0.022298148 0.019977583 0.026527533 0.016123889
0.023514839 0.016620068 0.020365415 0.023324583 0.021881504 0.019599428 0.020551227 0.023572471
0.020881088 -0.020968065 0.017475674 -0.023294894 0.029002411 0.032832175 -0.019749625 -0.023202777
0.012766648 0.016785603 0.02975878 0.020153826 -0.015060129 0.02557403 0.022357095 0.0234308
0.02108445 0.019475818 0.025455702 0.02028253 0.01508863 0.017982582 0.018942622 0.018462924
0.027145786 -0.024309477 0.03783315 -0.018754069 -0.01991723 0.018134495 0.013421161 -0.0357413
-0.026574522 0.019087262 0.021742593 0.020657927 -0.0192606 0.017437823 -0.021610057 0.023415012
0.020382602 -0.022104537 -0.016641496 0.020643821 -0.02053193 0.014170911 -0.025018988 0.017267229
0.024894414 0.022176247 -0.02211676 0.02400568 0.020697348 0.013664749 0.018311508 0.024385821
0.021534977 0.018466769 -0.01820563 0.017808542 0.023401227 0.021136353 0.020655826 0.023925627
-0.02434059 0.019987224 -0.024281252 0.023903025
