critic_target_network.model (npz, 44062 bytes, 5 tensors)

layer1/W f4 [110, 5]
0	0xbe85995e	-0.26093572
1	0xbf1918de	-0.5980357
2	0x3e710770	0.23537993
3	0x3ed959bd	0.42451277
4	0x3ef51000	0.4786377
5	0xbf75fbef	-0.96087545
6	0xbe2e0593	-0.16994314
7	0xbedf0496	-0.43558186
8	0x3f64d5f9	0.89388996
9	0x3e8cfc39	0.2753618
10	0xbf298759	-0.6622215
11	0xbc015185	-0.007892971
12	0x3e84d89c	0.2594651
13	0x3eea8375	0.4580342
14	0xbf28114e	-0.65651405
15	0x3f1c064f	0.60947126
16	0x3f1c3085	0.61011535
17	0xbf0ad5f5	-0.5423272
18	0x3f256c16	0.6461805
19	0x3f79ddee	0.9760426
20	0xbedc6ee2	-0.43053347
21	0xbe84807a	-0.2587927
22	0xbd06d7db	-0.0329207
23	0xbf721963	-0.9456999
24	0xbd263564	-0.04057826
25	0x3e11262b	0.14174716
26	0x3e7430dd	0.23846765
27	0x3f0070c1	0.5017205
28	0xbe2efa4c	-0.17087668
29	0x3f069da8	0.52584314
30	0xbced18ed	-0.02894255
31	0xbf198650	-0.5997057
32	0xbf84af4c	-1.0365996
33	0xbf03580f	-0.5130624
34	0x3f188080	0.59571075
35	0xbcecc90f	-0.028904466
36	0xbf16609f	-0.5874118
37	0xbf6735e5	-0.9031661
38	0x3d4620d3	0.048371147
39	0xbf071944	-0.5277293
40	0xbefce249	-0.49391392
41	0xbed71f25	-0.4201595
42	0xbf0bbcd3	-0.54585
43	0xbf7c9133	-0.98659056
44	0x3f542afe	0.828781
45	0xbef6f1b1	-0.4823127
46	0xbf434fe9	-0.7629381
47	0xbf32e07b	-0.6987378
48	0x3e926b36	0.2859742
49	0x3f4e2028	0.80517817
50	0xbdba92c6	-0.09110026
51	0x3f2467ce	0.64220893
52	0xbf468433	-0.7754547
53	0xbe813b50	-0.25240564
54	0xbded393e	-0.11583184
55	0xbd9c63a9	-0.07636196
56	0xbfb56a52	-1.4173071
57	0xbeb1836d	-0.34670582
58	0xbeb248db	-0.3482121
59	0xbd0a4654	-0.033758476
60	0x3e13b45a	0.14424267
61	0x3db9aff4	0.090667635
62	0x3e0e5385	0.13899048
63	0x3f5a110f	0.8518228
64	0x3e303188	0.17206395
65	0x3e91b799	0.28460386
66	0xbeb5bc62	-0.35495287
67	0xbebb90d1	-0.36633924
68	0x3efb3c74	0.4906956
69	0x3f40db1f	0.7533435
70	0xbf50962e	-0.81479156
71	0x3ca5cb0c	0.020238422
72	0x3ecc6cd1	0.3992677
73	0xbf12e21d	-0.5737627
74	0xbf1cb380	-0.61211395
75	0xbe5de3d1	-0.21668936
76	0xbf357c45	-0.70892745
77	0x3f9afb17	1.2107877
78	0xbe14bea9	-0.14525856
79	0xbf89f8f4	-1.07791
80	0xbe8e3743	-0.27776536
81	0x3df5d326	0.12003164
82	0xbf01478e	-0.5049981
83	0x3debe9ad	0.115191795
84	0x3e838378	0.2568624
85	0x3f14d111	0.5813151
86	0xbf259742	-0.64683926
87	0x3dbbb927	0.091661744
88	0x3edefdf4	0.43553126
89	0xbe8d5945	-0.2760717
90	0x3dd23221	0.102634676
91	0xbe8a4b19	-0.2701042
92	0xbeba264b	-0.3635734
93	0x3ddf6450	0.10907805
94	0x3f31a28d	0.6938866
95	0xbd8c3985	-0.068469085
96	0x3f23bdc6	0.63961446
97	0x3e5e045e	0.21681353
98	0x3d28228b	0.041048568
99	0xbf3c4cd5	-0.73554736
100	0xbf13deb9	-0.5776172
101	0xbeb3ed0a	-0.35141784
102	0x3f5085da	0.8145424
103	0x3eb20a8c	0.34773672
104	0xbedb3683	-0.42815027
105	0xbe4291fe	-0.19001004
106	0x3e63bf5c	0.22240967
107	0xbecf4747	-0.40484068
108	0x3e3760f1	0.17908074
109	0xbf56e17d	-0.8393782
110	0xbd697c27	-0.057003167
111	0x3e2f13e1	0.17097427
112	0x3f1b4f11	0.6066752
113	0x3f193ad2	0.5985538
114	0xbe6da2a0	-0.23206568
115	0x3e75bd45	0.23997982
116	0x3ed64665	0.41850582
117	0xbec82a1b	-0.39094624
118	0xbf1699e8	-0.5882859
119	0x3e83651c	0.25663078
120	0x3e93bf6a	0.28856975
121	0x3e45e1cf	0.1932442
122	0x3f1632ef	0.5867147
123	0x3e5bbc85	0.21458633
124	0x3e0b5d4f	0.13609813
125	0x3ef52c46	0.4788534
126	0xbec4410d	-0.3833088
127	0x3d602b1c	0.054728612
128	0xbb7caec7	-0.0038556324
129	0xbbc5b2d3	-0.0060332804
130	0xbea67845	-0.32513633
131	0x3cbfcdfe	0.023413654
132	0xbf6ad88c	-0.91736674
133	0xbedcdbc8	-0.4313643
134	0x3d2aac10	0.041667998
135	0xbe4bcd45	-0.19902523
136	0xbe5725bb	-0.21010487
137	0x3e831a93	0.25606212
138	0x3eda90cb	0.42688593
139	0x3f74a45f	0.9556331
140	0x3efe19bf	0.49629018
141	0xbdcbaddf	-0.09945273
142	0xbdda5fff	-0.10662841
143	0xbf252f22	-0.64525044
144	0x3e60a680	0.21938515
145	0x3e8ab949	0.27094486
146	0xbde221ea	-0.11041625
147	0xbddfcd66	-0.109278485
148	0x3f05d73e	0.5228156
149	0x3ebd82ea	0.37013942
150	0xbf95b37f	-1.1695403
151	0x3f415964	0.75527024
152	0xbdb28248	-0.087162554
153	0x3da4cdba	0.08047052
154	0xbe33eb4e	-0.1757023
155	0xbdd2245e	-0.10260843
156	0x3f4fa126	0.8110527
157	0x3ed85bb8	0.42257476
158	0x3e17fbb3	0.1484211
159	0x3eaadf45	0.33373466
160	0xbed9c2df	-0.42531487
161	0x3e0cd4da	0.13753071
162	0xbf4ee898	-0.8082366
163	0x3ee87482	0.45401388
164	0xbf1683dc	-0.5879495
165	0x3e21e93c	0.15811628
166	0xbe55d0d8	-0.20880449
167	0xbe009eb7	-0.12560545
168	0x3f282372	0.65679085
169	0x3eab014a	0.3339942
170	0x3e007ea5	0.12548311
171	0x3f7f21be	0.9966086
172	0x3f4d7ff6	0.8027338
173	0xbdbdef9f	-0.0927422
174	0xbe77b275	-0.2418917
175	0xbe071e9f	-0.13195275
176	0x3e116f2b	0.14202563
177	0x3a982e2e	0.0011610442
178	0x3c4056aa	0.011739412
179	0xbf3ab690	-0.7293482
180	0x3e3e8528	0.18605483
181	0x3e18a728	0.14907515
182	0x3dd9a4d6	0.10627143
183	0xbedf4f9b	-0.43615422
184	0xbd8d01f9	-0.06885142
185	0xbeec4d39	-0.46152666
186	0x3e96ab67	0.29427645
187	0x3f11285a	0.56702197
188	0x3ecca22c	0.39967477
189	0xbdc4d8cd	-0.09611664
190	0x3f3899f9	0.72109944
191	0xbec7b161	-0.39002517
192	0xbe8be0d4	-0.27319968
193	0x3e723e44	0.23656565
194	0xbe5fa66c	-0.21840829
195	0xbeb85872	-0.36004978
196	0x3d6fe961	0.058572177
197	0x3f24b1d8	0.6433387
198	0xbf10bd5c	-0.5653894
199	0x3dfb1ca5	0.12261323
200	0xbe0ac87d	-0.13553043
201	0xbdce1313	-0.10062232
202	0xbde16d29	-0.11007149
203	0x3e8ca18b	0.27466998
204	0xbe5b15d4	-0.21395046
205	0xbf3daa47	-0.7408795
206	0x3f2fae54	0.6862538
207	0xbd1754e0	-0.036946177
208	0xbe1fa98a	-0.15592018
209	0x3e16204f	0.14660762
210	0xbf0aeec5	-0.54270583
211	0xbdd952eb	-0.106115185
212	0xbf2f0183	-0.6836168
213	0xbde17f13	-0.110105656
214	0x3e2f8c6e	0.17143413
215	0x3dde22bf	0.10846471
216	0xbed1e9e8	-0.4099877
217	0xbfaa8437	-1.3321599
218	0x3efcb504	0.49356854
219	0x3e412599	0.18861999
220	0xbe8e52f4	-0.27797663
221	0x3d819d4c	0.0632883
222	0xbf23bd2d	-0.63960534
223	0xbe0ea212	-0.13929012
224	0x3d889578	0.06669134
225	0xbebe0330	-0.37111807
226	0x3e2c7e89	0.16845144
227	0x3e82b344	0.25527394
228	0xbf24e608	-0.644135
229	0xbf458e22	-0.7717
230	0xbe7510c5	-0.23932178
231	0x3e624318	0.22095907
232	0xbeadd348	-0.33950257
233	0x3ec2200f	0.37915084
234	0x3f033a9a	0.51261294
235	0x3e55203b	0.20813076
236	0x3e6fbed7	0.23412643
237	0xbd94a57e	-0.07258128
238	0xbf146724	-0.5796988
239	0xbf572b20	-0.8405018
240	0x3f281fd5	0.6567357
241	0xbcf304c7	-0.029665364
242	0x3efb85f5	0.4912564
243	0xbf40a49d	-0.7525118
244	0xbedac4ba	-0.42728215
245	0xbf060678	-0.5235362
246	0x3f0a2321	0.5395985
247	0x3ea3a88f	0.31964538
248	0x3ebc17ce	0.36736912
249	0x3d25e032	0.040497012
250	0xbc726775	-0.014795174
251	0xbf08e8a0	-0.5347996
252	0xbe192deb	-0.14958923
253	0x3e548001	0.20751955
254	0xbf1fa149	-0.62355477
255	0x3eb27605	0.34855667

layer1/b f4 [110]
0	0x00000000	0.0
1	0x00000000	0.0
2	0x00000000	0.0
3	0x00000000	0.0
4	0x00000000	0.0
5	0x00000000	0.0
6	0x00000000	0.0
7	0x00000000	0.0
8	0x00000000	0.0
9	0x00000000	0.0
10	0x00000000	0.0
11	0x00000000	0.0
12	0x00000000	0.0
13	0x00000000	0.0
14	0x00000000	0.0
15	0x00000000	0.0
16	0x00000000	0.0
17	0x00000000	0.0
18	0x00000000	0.0
19	0x00000000	0.0
20	0x00000000	0.0
21	0x00000000	0.0
22	0x00000000	0.0
23	0x00000000	0.0
24	0x00000000	0.0
25	0x00000000	0.0
26	0x00000000	0.0
27	0x00000000	0.0
28	0x00000000	0.0
29	0x00000000	0.0
30	0x00000000	0.0
31	0x00000000	0.0
32	0x00000000	0.0
33	0x00000000	0.0
34	0x00000000	0.0
35	0x00000000	0.0
36	0x00000000	0.0
37	0x00000000	0.0
38	0x00000000	0.0
39	0x00000000	0.0
40	0x00000000	0.0
41	0x00000000	0.0
42	0x00000000	0.0
43	0x00000000	0.0
44	0x00000000	0.0
45	0x00000000	0.0
46	0x00000000	0.0
47	0x00000000	0.0
48	0x00000000	0.0
49	0x00000000	0.0
50	0x00000000	0.0
51	0x00000000	0.0
52	0x00000000	0.0
53	0x00000000	0.0
54	0x00000000	0.0
55	0x00000000	0.0
56	0x00000000	0.0
57	0x00000000	0.0
58	0x00000000	0.0
59	0x00000000	0.0
60	0x00000000	0.0
61	0x00000000	0.0
62	0x00000000	0.0
63	0x00000000	0.0
64	0x00000000	0.0
65	0x00000000	0.0
66	0x00000000	0.0
67	0x00000000	0.0
68	0x00000000	0.0
69	0x00000000	0.0
70	0x00000000	0.0
71	0x00000000	0.0
72	0x00000000	0.0
73	0x00000000	0.0
74	0x00000000	0.0
75	0x00000000	0.0
76	0x00000000	0.0
77	0x00000000	0.0
78	0x00000000	0.0
79	0x00000000	0.0
80	0x00000000	0.0
81	0x00000000	0.0
82	0x00000000	0.0
83	0x00000000	0.0
84	0x00000000	0.0
85	0x00000000	0.0
86	0x00000000	0.0
87	0x00000000	0.0
88	0x00000000	0.0
89	0x00000000	0.0
90	0x00000000	0.0
91	0x00000000	0.0
92	0x00000000	0.0
93	0x00000000	0.0
94	0x00000000	0.0
95	0x00000000	0.0
96	0x00000000	0.0
97	0x00000000	0.0
98	0x00000000	0.0
99	0x00000000	0.0
100	0x00000000	0.0
101	0x00000000	0.0
102	0x00000000	0.0
103	0x00000000	0.0
104	0x00000000	0.0
105	0x00000000	0.0
106	0x00000000	0.0
107	0x00000000	0.0
108	0x00000000	0.0
109	0x00000000	0.0

layer2/W f4 [100, 110]
0	0x3d20fe7d	0.0393052
1	0x3da6eedd	0.08151028
2	0x3db6faa3	0.08934524
3	0x3d1167d4	0.03549941
4	0xbd55dbb1	-0.052211467
5	0x3ca62589	0.02028157
6	0xbdaa8151	-0.083254464
7	0xbe16b2f9	-0.1471671
8	0xbe23f81c	-0.16012615
9	0xbdd855d0	-0.105632424
10	0x3cd00824	0.025394507
11	0xbdef8e16	-0.116970226
12	0x3d48a8fd	0.048989285
13	0x3e068eeb	0.13140456
14	0x3c8f9535	0.017527202
15	0xbe943227	-0.28944513
16	0xbe0e4b2f	-0.13895868
17	0x3cc7bdef	0.02438256
18	0xbb4e2a4c	-0.0031458316
19	0x3e07b227	0.13251553
20	0x3d207786	0.039176486
21	0x3daa8882	0.08326818
22	0xbd5e0cde	-0.05421149
23	0xbe5765ef	-0.21034978
24	0xbda376d5	-0.0798165
25	0x3e32ef9a	0.17474213
26	0x3db49bce	0.0881878
27	0xbd2fdfb5	-0.042937953
28	0xbe4c8142	-0.19971183
29	0x3d05b473	0.032642793
30	0xbe3809d4	-0.17972499
31	0x3d774d01	0.06037617
32	0xbd48f729	-0.049063835
33	0x3e2b39c2	0.16721252
34	0xbd428fc9	-0.047500405
35	0x3dff9f16	0.12481515
36	0xbdd57151	-0.10422004
37	0x3d93cd2a	0.07216866
38	0xbda00a3d	-0.07814453
39	0x3d940891	0.072281964
40	0xbdfdc185	-0.123904265
41	0xbdd1bf7a	-0.102415994
42	0xb9a8d81e	-0.00032204477
43	0xbc7933ba	-0.0152100865
44	0xbd027e39	-0.031858657
45	0x3da901e5	0.082523145
46	0x3db59670	0.08866584
47	0xbd4ec801	-0.050483707
48	0x3c84cc93	0.01621083
49	0x3dbfc54a	0.09363802
50	0xbc37fbdc	-0.011229482
51	0xbd2918b9	-0.041283343
52	0x3dd5cbdc	0.10439274
53	0xbd8bca94	-0.06825748
54	0x3e4b90d6	0.1987947
55	0xbe035881	-0.1282673
56	0xbd37033c	-0.04468082
57	0xbdb7cfb0	-0.0897516
58	0x3dd53047	0.10409599
59	0x3df3fdc5	0.11913637
60	0x3e0eacf5	0.13933165
61	0xbe0b0e03	-0.13579564
62	0x3c3a7713	0.011380929
63	0xbdadce5f	-0.08486628
64	0xbd108ab1	-0.035288516
65	0xbdeec56a	-0.116587475
66	0x3e0acfb6	0.13555798
67	0xbe30b112	-0.17255047
68	0xbda68ca3	-0.08132293
69	0x3c3c8453	0.011506158
70	0xbbaac66b	-0.0052116415
71	0x3e2daea9	0.16961159
72	0xbdf573bd	-0.11984966
73	0x3e1eb24a	0.154977
74	0xbd3f47e4	-0.04669942
75	0xbe1bfa87	-0.15232287
76	0xbd5f33d7	-0.054492798
77	0x3db9eac8	0.09077984
78	0x3e8d5e8c	0.27611196
79	0xbdfa4484	-0.122200996
80	0x3d0bc336	0.034121715
81	0xbddbf232	-0.107395545
82	0xbd160eff	-0.036635395
83	0x3da66ff7	0.08126824
84	0xbd83d932	-0.06437911
85	0xbccd4449	-0.025056975
86	0x3d214a2c	0.039377376
87	0xbd300ea0	-0.042982697
88	0xbc2bc122	-0.010483058
89	0xbd824126	-0.06360082
90	0xbd2374e7	-0.03990641
91	0x3e21996a	0.15781179
92	0x3e23cdc7	0.15996467
93	0xbd966e8b	-0.07345303
94	0xbd7627c3	-0.060096513
95	0xbdee9552	-0.11649574
96	0x3e6e15af	0.23250459
97	0xbd83a98c	-0.06428823
98	0x3d151d6e	0.03640502
99	0xbdae8784	-0.08521941
100	0xbdf8877d	-0.12135217
101	0xbe0b76eb	-0.13619582
102	0x3bd58fba	0.0065173777
103	0xbceed14b	-0.029152533
104	0x3e28c24b	0.16480367
105	0xbe329658	-0.17440164
106	0xbc5ecb81	-0.013598324
107	0x3d4317f7	0.047630277
108	0x3caa7722	0.02080876
109	0x3d977b62	0.0739658
110	0xbc34fcac	-0.01104657
111	0xbd788a4d	-0.06067877
112	0xbdbe14da	-0.09281321
113	0x3e00b949	0.1257068
114	0xbd271f60	-0.040801406
115	0x3e0b5d89	0.136099
116	0xbcdb497d	-0.02676844
117	0x3c8ad8a9	0.016949015
118	0xbdba6533	-0.091013335
119	0x3db55623	0.0885432
120	0x3dcecaa5	0.10097245
121	0xbd814eba	-0.06313844
122	0x3b19bc8f	0.0023458337
123	0x3dd67744	0.10471967
124	0x3e48c528	0.19606459
125	0x3e0e9299	0.1392311
126	0xbcc063d1	-0.023485096
127	0xbd9dd2e3	-0.07706239
128	0xbd43c855	-0.047798473
129	0xbd9ffd6b	-0.078120075
130	0xbd4596bd	-0.04823946
131	0xbda0bd39	-0.07848591
132	0xbe09847b	-0.13429444
133	0xbae2ca8c	-0.0017302795
134	0x3e0888b6	0.13333401
135	0xbbd0f6e9	-0.0063770902
136	0xbacb51a8	-0.0015512006
137	0xbd676e32	-0.056501575
138	0xbdbf9596	-0.09354703
139	0x3d1b80a7	0.03796449
140	0x3dc09552	0.094034806
141	0x3e818a43	0.25300798
142	0x3d151197	0.036393728
143	0x3d26643e	0.040622942
144	0x3a569fa7	0.0008187242
145	0xbd574ab3	-0.052561473
146	0xbe32f6e2	-0.17476991
147	0xbd746d82	-0.059674747
148	0x3e65f40a	0.22456375
149	0x3e1cd42c	0.15315312
150	0xbbbaa4de	-0.005695923
151	0x3dbf0136	0.09326403
152	0xbde0d9b6	-0.10979025
153	0xbe1ca6b5	-0.15297969
154	0x3c64af1a	0.013957763
155	0x3cea4f44	0.02860225
156	0xbc879f99	-0.016555594
157	0xbd73134f	-0.059344586
158	0xbd9bc696	-0.07606237
159	0x3d826da2	0.06368567
160	0x3cb4fbd4	0.022092737
161	0xbde3b42b	-0.11118349
162	0xbd15e2f9	-0.03659341
163	0xbe26c42a	-0.16285768
164	0xbde5de80	-0.11224079
165	0xbdb96b85	-0.09053711
166	0x3d9e1527	0.07718878
167	0x3c259095	0.010105272
168	0xbde717bb	-0.11283823
169	0x3da2eeb8	0.07955688
170	0xbd47bb34	-0.048762515
171	0xbde115b7	-0.1099047
172	0x3d5eef69	0.054427538
173	0xbb94ea15	-0.0045445063
174	0xbdb970eb	-0.090547405
175	0x3d88dfdb	0.06683322
176	0xbd8e38f9	-0.069444604
177	0x3d20bc08	0.03924182
178	0x3e15be93	0.1462348
179	0x3df86954	0.12129465
180	0xb9549b1d	-0.0002027568
181	0x3de97a5d	0.11400292
182	0x3e15204b	0.145631
183	0xbe054c1b	-0.13017313
184	0x3db38381	0.08765317
185	0x3e395bda	0.18101445
186	0x3d477b3f	0.04870152
187	0x3ca2c851	0.019870909
188	0x3d971b1e	0.07378219
189	0x3db6544d	0.08902798
190	0x3b0d9814	0.0021605538
191	0xbc0f85e8	-0.008759953
192	0x3d4d03f8	0.050052613
193	0x3d9e0855	0.07716433
194	0x3e44fc76	0.19236931
195	0x3d6b3fa3	0.057433736
196	0x3bbbac40	0.005727321
197	0x3d1adff1	0.037811223
198	0xbca3437e	-0.019929644
199	0xbcead5e1	-0.028666439
200	0xbd00707a	-0.031357266
201	0x3e0b783d	0.13620086
202	0xbdd2a2d1	-0.10284961
203	0x3d6c91ee	0.057756357
204	0x3c9217e7	0.017833663
205	0xbbf2a850	-0.0074053183
206	0xbdf0dcfd	-0.117609
207	0x3d42e046	0.047577165
208	0xbdf5017a	-0.11963172
209	0xbcacf782	-0.021114115
210	0xbd1cd71b	-0.038291078
211	0xbd37538a	-0.044757403
212	0xbdae4b62	-0.08510472
213	0xbdc8bb3e	-0.098013386
214	0x3dafdddf	0.085872404
215	0x3e0c843d	0.1372232
216	0xbba858fa	-0.00513756
217	0xbd65a719	-0.05606756
218	0x3bdc00a6	0.0067139445
219	0x3de1c8cc	0.11024627
220	0x3cc40b38	0.02393113
221	0xbd75617f	-0.059907433
222	0xbd8a7d99	-0.06762237
223	0xbe319adb	-0.17344229
224	0x3e106e6a	0.1410462
225	0x3dcbc6d2	0.09950031
226	0xbcd9f84c	-0.026607655
227	0xbae215b2	-0.0017248897
228	0x3dc1cc1e	0.094627604
229	0xbcf6beec	-0.030120336
230	0xbcfd350a	-0.03090908
231	0x3d9ccaf8	0.07655901
232	0x3e068c87	0.13139544
233	0x3da918c0	0.08256674
234	0xbcdfb84a	-0.027309556
235	0xbd27cc94	-0.040966585
236	0xbcbf4933	-0.023350334
237	0xbd8b9f64	-0.06817511
238	0x3d48b4ac	0.049000427
239	0xbdd1e5a2	-0.10248877
240	0x3c474478	0.01216232
241	0x3d048c91	0.032360617
242	0x3b8ad252	0.004236498
243	0x3dd67e20	0.10473275
244	0x3deba350	0.11505759
245	0x3e298692	0.16555241
246	0x3e52d8a8	0.2059046
247	0x3e1d7926	0.15378246
248	0x3d84b879	0.06480498
249	0x3e592580	0.21205711
250	0x3dad4ac8	0.08461529
251	0xbd1b9198	-0.037980646
252	0xbdcc487f	-0.09974765
253	0x3d6ca927	0.057778504
254	0xbdb0d5c8	-0.086345255
255	0xbdde9524	-0.1086829

layer2/b f4 [100]
0	0x00000000	0.0
1	0x00000000	0.0
2	0x00000000	0.0
3	0x00000000	0.0
4	0x00000000	0.0
5	0x00000000	0.0
6	0x00000000	0.0
7	0x00000000	0.0
8	0x00000000	0.0
9	0x00000000	0.0
10	0x00000000	0.0
11	0x00000000	0.0
12	0x00000000	0.0
13	0x00000000	0.0
14	0x00000000	0.0
15	0x00000000	0.0
16	0x00000000	0.0
17	0x00000000	0.0
18	0x00000000	0.0
19	0x00000000	0.0
20	0x00000000	0.0
21	0x00000000	0.0
22	0x00000000	0.0
23	0x00000000	0.0
24	0x00000000	0.0
25	0x00000000	0.0
26	0x00000000	0.0
27	0x00000000	0.0
28	0x00000000	0.0
29	0x00000000	0.0
30	0x00000000	0.0
31	0x00000000	0.0
32	0x00000000	0.0
33	0x00000000	0.0
34	0x00000000	0.0
35	0x00000000	0.0
36	0x00000000	0.0
37	0x00000000	0.0
38	0x00000000	0.0
39	0x00000000	0.0
40	0x00000000	0.0
41	0x00000000	0.0
42	0x00000000	0.0
43	0x00000000	0.0
44	0x00000000	0.0
45	0x00000000	0.0
46	0x00000000	0.0
47	0x00000000	0.0
48	0x00000000	0.0
49	0x00000000	0.0
50	0x00000000	0.0
51	0x00000000	0.0
52	0x00000000	0.0
53	0x00000000	0.0
54	0x00000000	0.0
55	0x00000000	0.0
56	0x00000000	0.0
57	0x00000000	0.0
58	0x00000000	0.0
59	0x00000000	0.0
60	0x00000000	0.0
61	0x00000000	0.0
62	0x00000000	0.0
63	0x00000000	0.0
64	0x00000000	0.0
65	0x00000000	0.0
66	0x00000000	0.0
67	0x00000000	0.0
68	0x00000000	0.0
69	0x00000000	0.0
70	0x00000000	0.0
71	0x00000000	0.0
72	0x00000000	0.0
73	0x00000000	0.0
74	0x00000000	0.0
75	0x00000000	0.0
76	0x00000000	0.0
77	0x00000000	0.0
78	0x00000000	0.0
79	0x00000000	0.0
80	0x00000000	0.0
81	0x00000000	0.0
82	0x00000000	0.0
83	0x00000000	0.0
84	0x00000000	0.0
85	0x00000000	0.0
86	0x00000000	0.0
87	0x00000000	0.0
88	0x00000000	0.0
89	0x00000000	0.0
90	0x00000000	0.0
91	0x00000000	0.0
92	0x00000000	0.0
93	0x00000000	0.0
94	0x00000000	0.0
95	0x00000000	0.0
96	0x00000000	0.0
97	0x00000000	0.0
98	0x00000000	0.0
99	0x00000000	0.0

layer3/W f4 [1, 100]
0	0x00000000	0.0
1	0x00000000	0.0
2	0x00000000	0.0
3	0x00000000	0.0
4	0x00000000	0.0
5	0x00000000	0.0
6	0x00000000	0.0
7	0x00000000	0.0
8	0x00000000	0.0
9	0x00000000	0.0
10	0x00000000	0.0
11	0x00000000	0.0
12	0x00000000	0.0
13	0x00000000	0.0
14	0x00000000	0.0
15	0x00000000	0.0
16	0x00000000	0.0
17	0x00000000	0.0
18	0x00000000	0.0
19	0x00000000	0.0
20	0x00000000	0.0
21	0x00000000	0.0
22	0x00000000	0.0
23	0x00000000	0.0
24	0x00000000	0.0
25	0x00000000	0.0
26	0x00000000	0.0
27	0x00000000	0.0
28	0x00000000	0.0
29	0x00000000	0.0
30	0x00000000	0.0
31	0x00000000	0.0
32	0x00000000	0.0
33	0x00000000	0.0
34	0x00000000	0.0
35	0x00000000	0.0
36	0x00000000	0.0
37	0x00000000	0.0
38	0x00000000	0.0
39	0x00000000	0.0
40	0x00000000	0.0
41	0x00000000	0.0
42	0x00000000	0.0
43	0x00000000	0.0
44	0x00000000	0.0
45	0x00000000	0.0
46	0x00000000	0.0
47	0x00000000	0.0
48	0x00000000	0.0
49	0x00000000	0.0
50	0x00000000	0.0
51	0x00000000	0.0
52	0x00000000	0.0
53	0x00000000	0.0
54	0x00000000	0.0
55	0x00000000	0.0
56	0x00000000	0.0
57	0x00000000	0.0
58	0x00000000	0.0
59	0x00000000	0.0
60	0x00000000	0.0
61	0x00000000	0.0
62	0x00000000	0.0
63	0x00000000	0.0
64	0x00000000	0.0
65	0x00000000	0.0
66	0x00000000	0.0
67	0x00000000	0.0
68	0x00000000	0.0
69	0x00000000	0.0
70	0x00000000	0.0
71	0x00000000	0.0
72	0x00000000	0.0
73	0x00000000	0.0
74	0x00000000	0.0
75	0x00000000	0.0
76	0x00000000	0.0
77	0x00000000	0.0
78	0x00000000	0.0
79	0x00000000	0.0
80	0x00000000	0.0
81	0x00000000	0.0
82	0x00000000	0.0
83	0x00000000	0.0
84	0x00000000	0.0
85	0x00000000	0.0
86	0x00000000	0.0
87	0x00000000	0.0
88	0x00000000	0.0
89	0x00000000	0.0
90	0x00000000	0.0
91	0x00000000	0.0
92	0x00000000	0.0
93	0x00000000	0.0
94	0x00000000	0.0
95	0x00000000	0.0
96	0x00000000	0.0
97	0x00000000	0.0
98	0x00000000	0.0
99	0x00000000	0.0
